{"format": "graph-model", "generatedBy": "2.14.0", "convertedBy": "TensorFlow.js Converter v4.11.0", "signature": {"inputs": {"keras_layer_4_input": {"name": "keras_layer_4_input:0", "dtype": "DT_FLOAT", "tensorShape": {"dim": [{"size": "-1"}, {"size": "224"}, {"size": "224"}, {"size": "3"}]}}}, "outputs": {"dense_9": {"name": "Identity:0", "dtype": "DT_FLOAT", "tensorShape": {"dim": [{"size": "-1"}, {"size": "36"}]}}}}, "modelTopology": {"node": [{"name": "StatefulPartitionedCall/sequential_6/dense_8/MatMul/ReadVariableOp", "op": "Const", "attr": {"dtype": {"type": "DT_FLOAT"}, "value": {"tensor": {"dtype": "DT_FLOAT", "tensorShape": {"dim": [{"size": "1280"}, {"size": "64"}]}}}}}, {"name": "StatefulPartitionedCall/sequential_6/dense_8/BiasAdd/ReadVariableOp", "op": "Const", "attr": {"dtype": {"type": "DT_FLOAT"}, "value": {"tensor": {"dtype": "DT_FLOAT", "tensorShape": {"dim": [{"size": "64"}]}}}}}, {"name": "StatefulPartitionedCall/sequential_6/dense_9/MatMul/ReadVariableOp", "op": "Const", "attr": {"value": {"tensor": {"dtype": "DT_FLOAT", "tensorShape": {"dim": [{"size": "64"}, {"size": "36"}]}}}, "dtype": {"type": "DT_FLOAT"}}}, {"name": "StatefulPartitionedCall/sequential_6/dense_9/BiasAdd/ReadVariableOp", "op": "Const", "attr": {"value": {"tensor": {"dtype": "DT_FLOAT", "tensorShape": {"dim": [{"size": "36"}]}}}, "dtype": {"type": "DT_FLOAT"}}}, {"name": "keras_layer_4_input", "op": "Placeholder", "attr": {"shape": {"shape": {"dim": [{"size": "-1"}, {"size": "224"}, {"size": "224"}, {"size": "3"}]}}, "dtype": {"type": "DT_FLOAT"}}}, {"name": "StatefulPartitionedCall/sequential_6/keras_layer_4/StatefulPartitionedCall/StatefulPartitionedCall/StatefulPartitionedCall/predict/MobilenetV3/Conv/Conv2D_weights", "op": "Const", "attr": {"value": {"tensor": {"dtype": "DT_FLOAT", "tensorShape": {"dim": [{"size": "3"}, {"size": "3"}, {"size": "3"}, {"size": "16"}]}}}, "dtype": {"type": "DT_FLOAT"}}}, {"name": "StatefulPartitionedCall/sequential_6/keras_layer_4/StatefulPartitionedCall/StatefulPartitionedCall/StatefulPartitionedCall/predict/MobilenetV3/Conv/Conv2D_bn_offset", "op": "Const", "attr": {"value": {"tensor": {"dtype": "DT_FLOAT", "tensorShape": {"dim": [{"size": "16"}]}}}, "dtype": {"type": "DT_FLOAT"}}}, {"name": "StatefulPartitionedCall/sequential_6/keras_layer_4/StatefulPartitionedCall/StatefulPartitionedCall/StatefulPartitionedCall/predict/MobilenetV3/expanded_conv/depthwise/depthwise_weights", "op": "Const", "attr": {"value": {"tensor": {"dtype": "DT_FLOAT", "tensorShape": {"dim": [{"size": "3"}, {"size": "3"}, {"size": "16"}, {"size": "1"}]}}}, "dtype": {"type": "DT_FLOAT"}}}, {"name": "StatefulPartitionedCall/sequential_6/keras_layer_4/StatefulPartitionedCall/StatefulPartitionedCall/StatefulPartitionedCall/predict/MobilenetV3/expanded_conv/depthwise/depthwise_bn_offset", "op": "Const", "attr": {"dtype": {"type": "DT_FLOAT"}, "value": {"tensor": {"dtype": "DT_FLOAT", "tensorShape": {"dim": [{"size": "16"}]}}}}}, {"name": "StatefulPartitionedCall/sequential_6/keras_layer_4/StatefulPartitionedCall/StatefulPartitionedCall/StatefulPartitionedCall/predict/MobilenetV3/expanded_conv/project/Conv2D_weights", "op": "Const", "attr": {"value": {"tensor": {"dtype": "DT_FLOAT", "tensorShape": {"dim": [{"size": "1"}, {"size": "1"}, {"size": "16"}, {"size": "16"}]}}}, "dtype": {"type": "DT_FLOAT"}}}, {"name": "StatefulPartitionedCall/sequential_6/keras_layer_4/StatefulPartitionedCall/StatefulPartitionedCall/StatefulPartitionedCall/predict/MobilenetV3/expanded_conv/project/Conv2D_bn_offset", "op": "Const", "attr": {"dtype": {"type": "DT_FLOAT"}, "value": {"tensor": {"dtype": "DT_FLOAT", "tensorShape": {"dim": [{"size": "16"}]}}}}}, {"name": "StatefulPartitionedCall/sequential_6/keras_layer_4/StatefulPartitionedCall/StatefulPartitionedCall/StatefulPartitionedCall/predict/MobilenetV3/expanded_conv_1/expand/Conv2D_weights", "op": "Const", "attr": {"dtype": {"type": "DT_FLOAT"}, "value": {"tensor": {"dtype": "DT_FLOAT", "tensorShape": {"dim": [{"size": "1"}, {"size": "1"}, {"size": "16"}, {"size": "64"}]}}}}}, {"name": "StatefulPartitionedCall/sequential_6/keras_layer_4/StatefulPartitionedCall/StatefulPartitionedCall/StatefulPartitionedCall/predict/MobilenetV3/expanded_conv_1/expand/Conv2D_bn_offset", "op": "Const", "attr": {"value": {"tensor": {"dtype": "DT_FLOAT", "tensorShape": {"dim": [{"size": "64"}]}}}, "dtype": {"type": "DT_FLOAT"}}}, {"name": "StatefulPartitionedCall/sequential_6/keras_layer_4/StatefulPartitionedCall/StatefulPartitionedCall/StatefulPartitionedCall/predict/MobilenetV3/expanded_conv_1/depthwise/depthwise_weights", "op": "Const", "attr": {"value": {"tensor": {"dtype": "DT_FLOAT", "tensorShape": {"dim": [{"size": "3"}, {"size": "3"}, {"size": "64"}, {"size": "1"}]}}}, "dtype": {"type": "DT_FLOAT"}}}, {"name": "StatefulPartitionedCall/sequential_6/keras_layer_4/StatefulPartitionedCall/StatefulPartitionedCall/StatefulPartitionedCall/predict/MobilenetV3/expanded_conv_1/depthwise/depthwise_bn_offset", "op": "Const", "attr": {"value": {"tensor": {"dtype": "DT_FLOAT", "tensorShape": {"dim": [{"size": "64"}]}}}, "dtype": {"type": "DT_FLOAT"}}}, {"name": "StatefulPartitionedCall/sequential_6/keras_layer_4/StatefulPartitionedCall/StatefulPartitionedCall/StatefulPartitionedCall/predict/MobilenetV3/expanded_conv_1/project/Conv2D_weights", "op": "Const", "attr": {"value": {"tensor": {"dtype": "DT_FLOAT", "tensorShape": {"dim": [{"size": "1"}, {"size": "1"}, {"size": "64"}, {"size": "24"}]}}}, "dtype": {"type": "DT_FLOAT"}}}, {"name": "StatefulPartitionedCall/sequential_6/keras_layer_4/StatefulPartitionedCall/StatefulPartitionedCall/StatefulPartitionedCall/predict/MobilenetV3/expanded_conv_13/project/Conv2D_weights", "op": "Const", "attr": {"dtype": {"type": "DT_FLOAT"}, "value": {"tensor": {"dtype": "DT_FLOAT", "tensorShape": {"dim": [{"size": "1"}, {"size": "1"}, {"size": "720"}, {"size": "120"}]}}}}}, {"name": "StatefulPartitionedCall/sequential_6/keras_layer_4/StatefulPartitionedCall/StatefulPartitionedCall/StatefulPartitionedCall/predict/MobilenetV3/expanded_conv_1/project/Conv2D_bn_offset", "op": "Const", "attr": {"dtype": {"type": "DT_FLOAT"}, "value": {"tensor": {"dtype": "DT_FLOAT", "tensorShape": {"dim": [{"size": "24"}]}}}}}, {"name": "StatefulPartitionedCall/sequential_6/keras_layer_4/StatefulPartitionedCall/StatefulPartitionedCall/StatefulPartitionedCall/predict/MobilenetV3/expanded_conv_2/expand/Conv2D_weights", "op": "Const", "attr": {"dtype": {"type": "DT_FLOAT"}, "value": {"tensor": {"dtype": "DT_FLOAT", "tensorShape": {"dim": [{"size": "1"}, {"size": "1"}, {"size": "24"}, {"size": "72"}]}}}}}, {"name": "StatefulPartitionedCall/sequential_6/keras_layer_4/StatefulPartitionedCall/StatefulPartitionedCall/StatefulPartitionedCall/predict/MobilenetV3/expanded_conv_2/expand/Conv2D_bn_offset", "op": "Const", "attr": {"value": {"tensor": {"dtype": "DT_FLOAT", "tensorShape": {"dim": [{"size": "72"}]}}}, "dtype": {"type": "DT_FLOAT"}}}, {"name": "StatefulPartitionedCall/sequential_6/keras_layer_4/StatefulPartitionedCall/StatefulPartitionedCall/StatefulPartitionedCall/predict/MobilenetV3/expanded_conv_13/project/Conv2D_bn_offset", "op": "Const", "attr": {"dtype": {"type": "DT_FLOAT"}, "value": {"tensor": {"dtype": "DT_FLOAT", "tensorShape": {"dim": [{"size": "120"}]}}}}}, {"name": "StatefulPartitionedCall/sequential_6/keras_layer_4/StatefulPartitionedCall/StatefulPartitionedCall/StatefulPartitionedCall/predict/MobilenetV3/expanded_conv_2/depthwise/depthwise_weights", "op": "Const", "attr": {"dtype": {"type": "DT_FLOAT"}, "value": {"tensor": {"dtype": "DT_FLOAT", "tensorShape": {"dim": [{"size": "3"}, {"size": "3"}, {"size": "72"}, {"size": "1"}]}}}}}, {"name": "StatefulPartitionedCall/sequential_6/keras_layer_4/StatefulPartitionedCall/StatefulPartitionedCall/StatefulPartitionedCall/predict/MobilenetV3/expanded_conv_2/depthwise/depthwise_bn_offset", "op": "Const", "attr": {"value": {"tensor": {"dtype": "DT_FLOAT", "tensorShape": {"dim": [{"size": "72"}]}}}, "dtype": {"type": "DT_FLOAT"}}}, {"name": "StatefulPartitionedCall/sequential_6/keras_layer_4/StatefulPartitionedCall/StatefulPartitionedCall/StatefulPartitionedCall/predict/MobilenetV3/expanded_conv_2/project/Conv2D_weights", "op": "Const", "attr": {"dtype": {"type": "DT_FLOAT"}, "value": {"tensor": {"dtype": "DT_FLOAT", "tensorShape": {"dim": [{"size": "1"}, {"size": "1"}, {"size": "72"}, {"size": "24"}]}}}}}, {"name": "StatefulPartitionedCall/sequential_6/keras_layer_4/StatefulPartitionedCall/StatefulPartitionedCall/StatefulPartitionedCall/predict/MobilenetV3/expanded_conv_2/project/Conv2D_bn_offset", "op": "Const", "attr": {"value": {"tensor": {"dtype": "DT_FLOAT", "tensorShape": {"dim": [{"size": "24"}]}}}, "dtype": {"type": "DT_FLOAT"}}}, {"name": "StatefulPartitionedCall/sequential_6/keras_layer_4/StatefulPartitionedCall/StatefulPartitionedCall/StatefulPartitionedCall/predict/MobilenetV3/expanded_conv_3/expand/Conv2D_weights", "op": "Const", "attr": {"value": {"tensor": {"dtype": "DT_FLOAT", "tensorShape": {"dim": [{"size": "1"}, {"size": "1"}, {"size": "24"}, {"size": "72"}]}}}, "dtype": {"type": "DT_FLOAT"}}}, {"name": "StatefulPartitionedCall/sequential_6/keras_layer_4/StatefulPartitionedCall/StatefulPartitionedCall/StatefulPartitionedCall/predict/MobilenetV3/expanded_conv_3/expand/Conv2D_bn_offset", "op": "Const", "attr": {"value": {"tensor": {"dtype": "DT_FLOAT", "tensorShape": {"dim": [{"size": "72"}]}}}, "dtype": {"type": "DT_FLOAT"}}}, {"name": "StatefulPartitionedCall/sequential_6/keras_layer_4/StatefulPartitionedCall/StatefulPartitionedCall/StatefulPartitionedCall/predict/MobilenetV3/expanded_conv_14/expand/Conv2D_weights", "op": "Const", "attr": {"dtype": {"type": "DT_FLOAT"}, "value": {"tensor": {"dtype": "DT_FLOAT", "tensorShape": {"dim": [{"size": "1"}, {"size": "1"}, {"size": "120"}, {"size": "720"}]}}}}}, {"name": "StatefulPartitionedCall/sequential_6/keras_layer_4/StatefulPartitionedCall/StatefulPartitionedCall/StatefulPartitionedCall/predict/MobilenetV3/expanded_conv_3/depthwise/depthwise_weights", "op": "Const", "attr": {"value": {"tensor": {"dtype": "DT_FLOAT", "tensorShape": {"dim": [{"size": "5"}, {"size": "5"}, {"size": "72"}, {"size": "1"}]}}}, "dtype": {"type": "DT_FLOAT"}}}, {"name": "StatefulPartitionedCall/sequential_6/keras_layer_4/StatefulPartitionedCall/StatefulPartitionedCall/StatefulPartitionedCall/predict/MobilenetV3/expanded_conv_3/depthwise/depthwise_bn_offset", "op": "Const", "attr": {"value": {"tensor": {"dtype": "DT_FLOAT", "tensorShape": {"dim": [{"size": "72"}]}}}, "dtype": {"type": "DT_FLOAT"}}}, {"name": "StatefulPartitionedCall/sequential_6/keras_layer_4/StatefulPartitionedCall/StatefulPartitionedCall/StatefulPartitionedCall/predict/MobilenetV3/expanded_conv_14/expand/Conv2D_bn_offset", "op": "Const", "attr": {"dtype": {"type": "DT_FLOAT"}, "value": {"tensor": {"dtype": "DT_FLOAT", "tensorShape": {"dim": [{"size": "720"}]}}}}}, {"name": "StatefulPartitionedCall/sequential_6/keras_layer_4/StatefulPartitionedCall/StatefulPartitionedCall/StatefulPartitionedCall/predict/MobilenetV3/expanded_conv_3/project/Conv2D_weights", "op": "Const", "attr": {"value": {"tensor": {"dtype": "DT_FLOAT", "tensorShape": {"dim": [{"size": "1"}, {"size": "1"}, {"size": "72"}, {"size": "32"}]}}}, "dtype": {"type": "DT_FLOAT"}}}, {"name": "StatefulPartitionedCall/sequential_6/keras_layer_4/StatefulPartitionedCall/StatefulPartitionedCall/StatefulPartitionedCall/predict/MobilenetV3/expanded_conv_3/project/Conv2D_bn_offset", "op": "Const", "attr": {"value": {"tensor": {"dtype": "DT_FLOAT", "tensorShape": {"dim": [{"size": "32"}]}}}, "dtype": {"type": "DT_FLOAT"}}}, {"name": "StatefulPartitionedCall/sequential_6/keras_layer_4/StatefulPartitionedCall/StatefulPartitionedCall/StatefulPartitionedCall/predict/MobilenetV3/expanded_conv_4/expand/Conv2D_weights", "op": "Const", "attr": {"dtype": {"type": "DT_FLOAT"}, "value": {"tensor": {"dtype": "DT_FLOAT", "tensorShape": {"dim": [{"size": "1"}, {"size": "1"}, {"size": "32"}, {"size": "96"}]}}}}}, {"name": "StatefulPartitionedCall/sequential_6/keras_layer_4/StatefulPartitionedCall/StatefulPartitionedCall/StatefulPartitionedCall/predict/MobilenetV3/expanded_conv_4/expand/Conv2D_bn_offset", "op": "Const", "attr": {"dtype": {"type": "DT_FLOAT"}, "value": {"tensor": {"dtype": "DT_FLOAT", "tensorShape": {"dim": [{"size": "96"}]}}}}}, {"name": "StatefulPartitionedCall/sequential_6/keras_layer_4/StatefulPartitionedCall/StatefulPartitionedCall/StatefulPartitionedCall/predict/MobilenetV3/expanded_conv_4/depthwise/depthwise_weights", "op": "Const", "attr": {"value": {"tensor": {"dtype": "DT_FLOAT", "tensorShape": {"dim": [{"size": "5"}, {"size": "5"}, {"size": "96"}, {"size": "1"}]}}}, "dtype": {"type": "DT_FLOAT"}}}, {"name": "StatefulPartitionedCall/sequential_6/keras_layer_4/StatefulPartitionedCall/StatefulPartitionedCall/StatefulPartitionedCall/predict/MobilenetV3/expanded_conv_4/depthwise/depthwise_bn_offset", "op": "Const", "attr": {"dtype": {"type": "DT_FLOAT"}, "value": {"tensor": {"dtype": "DT_FLOAT", "tensorShape": {"dim": [{"size": "96"}]}}}}}, {"name": "StatefulPartitionedCall/sequential_6/keras_layer_4/StatefulPartitionedCall/StatefulPartitionedCall/StatefulPartitionedCall/predict/MobilenetV3/expanded_conv_14/depthwise/depthwise_weights", "op": "Const", "attr": {"value": {"tensor": {"dtype": "DT_FLOAT", "tensorShape": {"dim": [{"size": "5"}, {"size": "5"}, {"size": "720"}, {"size": "1"}]}}}, "dtype": {"type": "DT_FLOAT"}}}, {"name": "StatefulPartitionedCall/sequential_6/keras_layer_4/StatefulPartitionedCall/StatefulPartitionedCall/StatefulPartitionedCall/predict/MobilenetV3/expanded_conv_4/project/Conv2D_weights", "op": "Const", "attr": {"value": {"tensor": {"dtype": "DT_FLOAT", "tensorShape": {"dim": [{"size": "1"}, {"size": "1"}, {"size": "96"}, {"size": "32"}]}}}, "dtype": {"type": "DT_FLOAT"}}}, {"name": "StatefulPartitionedCall/sequential_6/keras_layer_4/StatefulPartitionedCall/StatefulPartitionedCall/StatefulPartitionedCall/predict/MobilenetV3/expanded_conv_14/depthwise/depthwise_bn_offset", "op": "Const", "attr": {"value": {"tensor": {"dtype": "DT_FLOAT", "tensorShape": {"dim": [{"size": "720"}]}}}, "dtype": {"type": "DT_FLOAT"}}}, {"name": "StatefulPartitionedCall/sequential_6/keras_layer_4/StatefulPartitionedCall/StatefulPartitionedCall/StatefulPartitionedCall/predict/MobilenetV3/expanded_conv_4/project/Conv2D_bn_offset", "op": "Const", "attr": {"value": {"tensor": {"dtype": "DT_FLOAT", "tensorShape": {"dim": [{"size": "32"}]}}}, "dtype": {"type": "DT_FLOAT"}}}, {"name": "StatefulPartitionedCall/sequential_6/keras_layer_4/StatefulPartitionedCall/StatefulPartitionedCall/StatefulPartitionedCall/predict/MobilenetV3/expanded_conv_5/expand/Conv2D_weights", "op": "Const", "attr": {"dtype": {"type": "DT_FLOAT"}, "value": {"tensor": {"dtype": "DT_FLOAT", "tensorShape": {"dim": [{"size": "1"}, {"size": "1"}, {"size": "32"}, {"size": "96"}]}}}}}, {"name": "StatefulPartitionedCall/sequential_6/keras_layer_4/StatefulPartitionedCall/StatefulPartitionedCall/StatefulPartitionedCall/predict/MobilenetV3/expanded_conv_5/expand/Conv2D_bn_offset", "op": "Const", "attr": {"value": {"tensor": {"dtype": "DT_FLOAT", "tensorShape": {"dim": [{"size": "96"}]}}}, "dtype": {"type": "DT_FLOAT"}}}, {"name": "StatefulPartitionedCall/sequential_6/keras_layer_4/StatefulPartitionedCall/StatefulPartitionedCall/StatefulPartitionedCall/predict/MobilenetV3/expanded_conv_5/depthwise/depthwise_weights", "op": "Const", "attr": {"value": {"tensor": {"dtype": "DT_FLOAT", "tensorShape": {"dim": [{"size": "5"}, {"size": "5"}, {"size": "96"}, {"size": "1"}]}}}, "dtype": {"type": "DT_FLOAT"}}}, {"name": "StatefulPartitionedCall/sequential_6/keras_layer_4/StatefulPartitionedCall/StatefulPartitionedCall/StatefulPartitionedCall/predict/MobilenetV3/expanded_conv_5/depthwise/depthwise_bn_offset", "op": "Const", "attr": {"value": {"tensor": {"dtype": "DT_FLOAT", "tensorShape": {"dim": [{"size": "96"}]}}}, "dtype": {"type": "DT_FLOAT"}}}, {"name": "StatefulPartitionedCall/sequential_6/keras_layer_4/StatefulPartitionedCall/StatefulPartitionedCall/StatefulPartitionedCall/predict/MobilenetV3/expanded_conv_5/project/Conv2D_weights", "op": "Const", "attr": {"value": {"tensor": {"dtype": "DT_FLOAT", "tensorShape": {"dim": [{"size": "1"}, {"size": "1"}, {"size": "96"}, {"size": "32"}]}}}, "dtype": {"type": "DT_FLOAT"}}}, {"name": "StatefulPartitionedCall/sequential_6/keras_layer_4/StatefulPartitionedCall/StatefulPartitionedCall/StatefulPartitionedCall/predict/MobilenetV3/expanded_conv_5/project/Conv2D_bn_offset", "op": "Const", "attr": {"value": {"tensor": {"dtype": "DT_FLOAT", "tensorShape": {"dim": [{"size": "32"}]}}}, "dtype": {"type": "DT_FLOAT"}}}, {"name": "StatefulPartitionedCall/sequential_6/keras_layer_4/StatefulPartitionedCall/StatefulPartitionedCall/StatefulPartitionedCall/predict/MobilenetV3/expanded_conv_6/expand/Conv2D_weights", "op": "Const", "attr": {"value": {"tensor": {"dtype": "DT_FLOAT", "tensorShape": {"dim": [{"size": "1"}, {"size": "1"}, {"size": "32"}, {"size": "192"}]}}}, "dtype": {"type": "DT_FLOAT"}}}, {"name": "StatefulPartitionedCall/sequential_6/keras_layer_4/StatefulPartitionedCall/StatefulPartitionedCall/StatefulPartitionedCall/predict/MobilenetV3/expanded_conv_6/expand/Conv2D_bn_offset", "op": "Const", "attr": {"value": {"tensor": {"dtype": "DT_FLOAT", "tensorShape": {"dim": [{"size": "192"}]}}}, "dtype": {"type": "DT_FLOAT"}}}, {"name": "StatefulPartitionedCall/sequential_6/keras_layer_4/StatefulPartitionedCall/StatefulPartitionedCall/StatefulPartitionedCall/predict/MobilenetV3/expanded_conv_6/depthwise/depthwise_weights", "op": "Const", "attr": {"value": {"tensor": {"dtype": "DT_FLOAT", "tensorShape": {"dim": [{"size": "3"}, {"size": "3"}, {"size": "192"}, {"size": "1"}]}}}, "dtype": {"type": "DT_FLOAT"}}}, {"name": "StatefulPartitionedCall/sequential_6/keras_layer_4/StatefulPartitionedCall/StatefulPartitionedCall/StatefulPartitionedCall/predict/MobilenetV3/expanded_conv_6/depthwise/depthwise_bn_offset", "op": "Const", "attr": {"value": {"tensor": {"dtype": "DT_FLOAT", "tensorShape": {"dim": [{"size": "192"}]}}}, "dtype": {"type": "DT_FLOAT"}}}, {"name": "StatefulPartitionedCall/sequential_6/keras_layer_4/StatefulPartitionedCall/StatefulPartitionedCall/StatefulPartitionedCall/predict/MobilenetV3/expanded_conv_6/project/Conv2D_weights", "op": "Const", "attr": {"value": {"tensor": {"dtype": "DT_FLOAT", "tensorShape": {"dim": [{"size": "1"}, {"size": "1"}, {"size": "192"}, {"size": "64"}]}}}, "dtype": {"type": "DT_FLOAT"}}}, {"name": "StatefulPartitionedCall/sequential_6/keras_layer_4/StatefulPartitionedCall/StatefulPartitionedCall/StatefulPartitionedCall/predict/MobilenetV3/expanded_conv_6/project/Conv2D_bn_offset", "op": "Const", "attr": {"dtype": {"type": "DT_FLOAT"}, "value": {"tensor": {"dtype": "DT_FLOAT", "tensorShape": {"dim": [{"size": "64"}]}}}}}, {"name": "StatefulPartitionedCall/sequential_6/keras_layer_4/StatefulPartitionedCall/StatefulPartitionedCall/StatefulPartitionedCall/predict/MobilenetV3/expanded_conv_7/expand/Conv2D_weights", "op": "Const", "attr": {"dtype": {"type": "DT_FLOAT"}, "value": {"tensor": {"dtype": "DT_FLOAT", "tensorShape": {"dim": [{"size": "1"}, {"size": "1"}, {"size": "64"}, {"size": "160"}]}}}}}, {"name": "StatefulPartitionedCall/sequential_6/keras_layer_4/StatefulPartitionedCall/StatefulPartitionedCall/StatefulPartitionedCall/predict/MobilenetV3/expanded_conv_7/expand/Conv2D_bn_offset", "op": "Const", "attr": {"value": {"tensor": {"dtype": "DT_FLOAT", "tensorShape": {"dim": [{"size": "160"}]}}}, "dtype": {"type": "DT_FLOAT"}}}, {"name": "StatefulPartitionedCall/sequential_6/keras_layer_4/StatefulPartitionedCall/StatefulPartitionedCall/StatefulPartitionedCall/predict/MobilenetV3/expanded_conv_7/depthwise/depthwise_weights", "op": "Const", "attr": {"dtype": {"type": "DT_FLOAT"}, "value": {"tensor": {"dtype": "DT_FLOAT", "tensorShape": {"dim": [{"size": "3"}, {"size": "3"}, {"size": "160"}, {"size": "1"}]}}}}}, {"name": "StatefulPartitionedCall/sequential_6/keras_layer_4/StatefulPartitionedCall/StatefulPartitionedCall/StatefulPartitionedCall/predict/MobilenetV3/expanded_conv_7/depthwise/depthwise_bn_offset", "op": "Const", "attr": {"value": {"tensor": {"dtype": "DT_FLOAT", "tensorShape": {"dim": [{"size": "160"}]}}}, "dtype": {"type": "DT_FLOAT"}}}, {"name": "StatefulPartitionedCall/sequential_6/keras_layer_4/StatefulPartitionedCall/StatefulPartitionedCall/StatefulPartitionedCall/predict/MobilenetV3/expanded_conv_7/project/Conv2D_weights", "op": "Const", "attr": {"value": {"tensor": {"dtype": "DT_FLOAT", "tensorShape": {"dim": [{"size": "1"}, {"size": "1"}, {"size": "160"}, {"size": "64"}]}}}, "dtype": {"type": "DT_FLOAT"}}}, {"name": "StatefulPartitionedCall/sequential_6/keras_layer_4/StatefulPartitionedCall/StatefulPartitionedCall/StatefulPartitionedCall/predict/MobilenetV3/expanded_conv_7/project/Conv2D_bn_offset", "op": "Const", "attr": {"dtype": {"type": "DT_FLOAT"}, "value": {"tensor": {"dtype": "DT_FLOAT", "tensorShape": {"dim": [{"size": "64"}]}}}}}, {"name": "StatefulPartitionedCall/sequential_6/keras_layer_4/StatefulPartitionedCall/StatefulPartitionedCall/StatefulPartitionedCall/predict/MobilenetV3/expanded_conv_8/expand/Conv2D_weights", "op": "Const", "attr": {"dtype": {"type": "DT_FLOAT"}, "value": {"tensor": {"dtype": "DT_FLOAT", "tensorShape": {"dim": [{"size": "1"}, {"size": "1"}, {"size": "64"}, {"size": "144"}]}}}}}, {"name": "StatefulPartitionedCall/sequential_6/keras_layer_4/StatefulPartitionedCall/StatefulPartitionedCall/StatefulPartitionedCall/predict/MobilenetV3/expanded_conv_8/expand/Conv2D_bn_offset", "op": "Const", "attr": {"dtype": {"type": "DT_FLOAT"}, "value": {"tensor": {"dtype": "DT_FLOAT", "tensorShape": {"dim": [{"size": "144"}]}}}}}, {"name": "StatefulPartitionedCall/sequential_6/keras_layer_4/StatefulPartitionedCall/StatefulPartitionedCall/StatefulPartitionedCall/predict/MobilenetV3/expanded_conv_8/depthwise/depthwise_weights", "op": "Const", "attr": {"value": {"tensor": {"dtype": "DT_FLOAT", "tensorShape": {"dim": [{"size": "3"}, {"size": "3"}, {"size": "144"}, {"size": "1"}]}}}, "dtype": {"type": "DT_FLOAT"}}}, {"name": "StatefulPartitionedCall/sequential_6/keras_layer_4/StatefulPartitionedCall/StatefulPartitionedCall/StatefulPartitionedCall/predict/MobilenetV3/expanded_conv_8/depthwise/depthwise_bn_offset", "op": "Const", "attr": {"value": {"tensor": {"dtype": "DT_FLOAT", "tensorShape": {"dim": [{"size": "144"}]}}}, "dtype": {"type": "DT_FLOAT"}}}, {"name": "StatefulPartitionedCall/sequential_6/keras_layer_4/StatefulPartitionedCall/StatefulPartitionedCall/StatefulPartitionedCall/predict/MobilenetV3/expanded_conv_8/project/Conv2D_weights", "op": "Const", "attr": {"dtype": {"type": "DT_FLOAT"}, "value": {"tensor": {"dtype": "DT_FLOAT", "tensorShape": {"dim": [{"size": "1"}, {"size": "1"}, {"size": "144"}, {"size": "64"}]}}}}}, {"name": "StatefulPartitionedCall/sequential_6/keras_layer_4/StatefulPartitionedCall/StatefulPartitionedCall/StatefulPartitionedCall/predict/MobilenetV3/expanded_conv_8/project/Conv2D_bn_offset", "op": "Const", "attr": {"dtype": {"type": "DT_FLOAT"}, "value": {"tensor": {"dtype": "DT_FLOAT", "tensorShape": {"dim": [{"size": "64"}]}}}}}, {"name": "StatefulPartitionedCall/sequential_6/keras_layer_4/StatefulPartitionedCall/StatefulPartitionedCall/StatefulPartitionedCall/predict/MobilenetV3/expanded_conv_9/expand/Conv2D_weights", "op": "Const", "attr": {"value": {"tensor": {"dtype": "DT_FLOAT", "tensorShape": {"dim": [{"size": "1"}, {"size": "1"}, {"size": "64"}, {"size": "144"}]}}}, "dtype": {"type": "DT_FLOAT"}}}, {"name": "StatefulPartitionedCall/sequential_6/keras_layer_4/StatefulPartitionedCall/StatefulPartitionedCall/StatefulPartitionedCall/predict/MobilenetV3/expanded_conv_9/expand/Conv2D_bn_offset", "op": "Const", "attr": {"value": {"tensor": {"dtype": "DT_FLOAT", "tensorShape": {"dim": [{"size": "144"}]}}}, "dtype": {"type": "DT_FLOAT"}}}, {"name": "StatefulPartitionedCall/sequential_6/keras_layer_4/StatefulPartitionedCall/StatefulPartitionedCall/StatefulPartitionedCall/predict/MobilenetV3/expanded_conv_9/depthwise/depthwise_weights", "op": "Const", "attr": {"dtype": {"type": "DT_FLOAT"}, "value": {"tensor": {"dtype": "DT_FLOAT", "tensorShape": {"dim": [{"size": "3"}, {"size": "3"}, {"size": "144"}, {"size": "1"}]}}}}}, {"name": "StatefulPartitionedCall/sequential_6/keras_layer_4/StatefulPartitionedCall/StatefulPartitionedCall/StatefulPartitionedCall/predict/MobilenetV3/expanded_conv_9/depthwise/depthwise_bn_offset", "op": "Const", "attr": {"value": {"tensor": {"dtype": "DT_FLOAT", "tensorShape": {"dim": [{"size": "144"}]}}}, "dtype": {"type": "DT_FLOAT"}}}, {"name": "StatefulPartitionedCall/sequential_6/keras_layer_4/StatefulPartitionedCall/StatefulPartitionedCall/StatefulPartitionedCall/predict/MobilenetV3/expanded_conv_9/project/Conv2D_weights", "op": "Const", "attr": {"dtype": {"type": "DT_FLOAT"}, "value": {"tensor": {"dtype": "DT_FLOAT", "tensorShape": {"dim": [{"size": "1"}, {"size": "1"}, {"size": "144"}, {"size": "64"}]}}}}}, {"name": "StatefulPartitionedCall/sequential_6/keras_layer_4/StatefulPartitionedCall/StatefulPartitionedCall/StatefulPartitionedCall/predict/MobilenetV3/expanded_conv_9/project/Conv2D_bn_offset", "op": "Const", "attr": {"dtype": {"type": "DT_FLOAT"}, "value": {"tensor": {"dtype": "DT_FLOAT", "tensorShape": {"dim": [{"size": "64"}]}}}}}, {"name": "StatefulPartitionedCall/sequential_6/keras_layer_4/StatefulPartitionedCall/StatefulPartitionedCall/StatefulPartitionedCall/predict/MobilenetV3/expanded_conv_10/expand/Conv2D_weights", "op": "Const", "attr": {"value": {"tensor": {"dtype": "DT_FLOAT", "tensorShape": {"dim": [{"size": "1"}, {"size": "1"}, {"size": "64"}, {"size": "384"}]}}}, "dtype": {"type": "DT_FLOAT"}}}, {"name": "StatefulPartitionedCall/sequential_6/keras_layer_4/StatefulPartitionedCall/StatefulPartitionedCall/StatefulPartitionedCall/predict/MobilenetV3/expanded_conv_10/expand/Conv2D_bn_offset", "op": "Const", "attr": {"dtype": {"type": "DT_FLOAT"}, "value": {"tensor": {"dtype": "DT_FLOAT", "tensorShape": {"dim": [{"size": "384"}]}}}}}, {"name": "StatefulPartitionedCall/sequential_6/keras_layer_4/StatefulPartitionedCall/StatefulPartitionedCall/StatefulPartitionedCall/predict/MobilenetV3/expanded_conv_10/depthwise/depthwise_weights", "op": "Const", "attr": {"dtype": {"type": "DT_FLOAT"}, "value": {"tensor": {"dtype": "DT_FLOAT", "tensorShape": {"dim": [{"size": "3"}, {"size": "3"}, {"size": "384"}, {"size": "1"}]}}}}}, {"name": "StatefulPartitionedCall/sequential_6/keras_layer_4/StatefulPartitionedCall/StatefulPartitionedCall/StatefulPartitionedCall/predict/MobilenetV3/expanded_conv_10/depthwise/depthwise_bn_offset", "op": "Const", "attr": {"dtype": {"type": "DT_FLOAT"}, "value": {"tensor": {"dtype": "DT_FLOAT", "tensorShape": {"dim": [{"size": "384"}]}}}}}, {"name": "StatefulPartitionedCall/sequential_6/keras_layer_4/StatefulPartitionedCall/StatefulPartitionedCall/StatefulPartitionedCall/predict/MobilenetV3/expanded_conv_14/project/Conv2D_weights", "op": "Const", "attr": {"dtype": {"type": "DT_FLOAT"}, "value": {"tensor": {"dtype": "DT_FLOAT", "tensorShape": {"dim": [{"size": "1"}, {"size": "1"}, {"size": "720"}, {"size": "120"}]}}}}}, {"name": "StatefulPartitionedCall/sequential_6/keras_layer_4/StatefulPartitionedCall/StatefulPartitionedCall/StatefulPartitionedCall/predict/MobilenetV3/expanded_conv_14/project/Conv2D_bn_offset", "op": "Const", "attr": {"value": {"tensor": {"dtype": "DT_FLOAT", "tensorShape": {"dim": [{"size": "120"}]}}}, "dtype": {"type": "DT_FLOAT"}}}, {"name": "StatefulPartitionedCall/sequential_6/keras_layer_4/StatefulPartitionedCall/StatefulPartitionedCall/StatefulPartitionedCall/predict/MobilenetV3/expanded_conv_10/project/Conv2D_weights", "op": "Const", "attr": {"dtype": {"type": "DT_FLOAT"}, "value": {"tensor": {"dtype": "DT_FLOAT", "tensorShape": {"dim": [{"size": "1"}, {"size": "1"}, {"size": "384"}, {"size": "88"}]}}}}}, {"name": "StatefulPartitionedCall/sequential_6/keras_layer_4/StatefulPartitionedCall/StatefulPartitionedCall/StatefulPartitionedCall/predict/MobilenetV3/expanded_conv_10/project/Conv2D_bn_offset", "op": "Const", "attr": {"value": {"tensor": {"dtype": "DT_FLOAT", "tensorShape": {"dim": [{"size": "88"}]}}}, "dtype": {"type": "DT_FLOAT"}}}, {"name": "StatefulPartitionedCall/sequential_6/keras_layer_4/StatefulPartitionedCall/StatefulPartitionedCall/StatefulPartitionedCall/predict/MobilenetV3/expanded_conv_11/expand/Conv2D_weights", "op": "Const", "attr": {"dtype": {"type": "DT_FLOAT"}, "value": {"tensor": {"dtype": "DT_FLOAT", "tensorShape": {"dim": [{"size": "1"}, {"size": "1"}, {"size": "88"}, {"size": "528"}]}}}}}, {"name": "StatefulPartitionedCall/sequential_6/keras_layer_4/StatefulPartitionedCall/StatefulPartitionedCall/StatefulPartitionedCall/predict/MobilenetV3/expanded_conv_11/expand/Conv2D_bn_offset", "op": "Const", "attr": {"value": {"tensor": {"dtype": "DT_FLOAT", "tensorShape": {"dim": [{"size": "528"}]}}}, "dtype": {"type": "DT_FLOAT"}}}, {"name": "StatefulPartitionedCall/sequential_6/keras_layer_4/StatefulPartitionedCall/StatefulPartitionedCall/StatefulPartitionedCall/predict/MobilenetV3/expanded_conv_11/depthwise/depthwise_weights", "op": "Const", "attr": {"value": {"tensor": {"dtype": "DT_FLOAT", "tensorShape": {"dim": [{"size": "3"}, {"size": "3"}, {"size": "528"}, {"size": "1"}]}}}, "dtype": {"type": "DT_FLOAT"}}}, {"name": "StatefulPartitionedCall/sequential_6/keras_layer_4/StatefulPartitionedCall/StatefulPartitionedCall/StatefulPartitionedCall/predict/MobilenetV3/expanded_conv_11/depthwise/depthwise_bn_offset", "op": "Const", "attr": {"dtype": {"type": "DT_FLOAT"}, "value": {"tensor": {"dtype": "DT_FLOAT", "tensorShape": {"dim": [{"size": "528"}]}}}}}, {"name": "StatefulPartitionedCall/sequential_6/keras_layer_4/StatefulPartitionedCall/StatefulPartitionedCall/StatefulPartitionedCall/predict/MobilenetV3/Conv_1/Conv2D_weights", "op": "Const", "attr": {"value": {"tensor": {"dtype": "DT_FLOAT", "tensorShape": {"dim": [{"size": "1"}, {"size": "1"}, {"size": "120"}, {"size": "720"}]}}}, "dtype": {"type": "DT_FLOAT"}}}, {"name": "StatefulPartitionedCall/sequential_6/keras_layer_4/StatefulPartitionedCall/StatefulPartitionedCall/StatefulPartitionedCall/predict/MobilenetV3/Conv_1/Conv2D_bn_offset", "op": "Const", "attr": {"dtype": {"type": "DT_FLOAT"}, "value": {"tensor": {"dtype": "DT_FLOAT", "tensorShape": {"dim": [{"size": "720"}]}}}}}, {"name": "StatefulPartitionedCall/sequential_6/keras_layer_4/StatefulPartitionedCall/StatefulPartitionedCall/StatefulPartitionedCall/predict/MobilenetV3/expanded_conv_11/project/Conv2D_weights", "op": "Const", "attr": {"value": {"tensor": {"dtype": "DT_FLOAT", "tensorShape": {"dim": [{"size": "1"}, {"size": "1"}, {"size": "528"}, {"size": "88"}]}}}, "dtype": {"type": "DT_FLOAT"}}}, {"name": "StatefulPartitionedCall/sequential_6/keras_layer_4/StatefulPartitionedCall/StatefulPartitionedCall/StatefulPartitionedCall/predict/MobilenetV3/expanded_conv_11/project/Conv2D_bn_offset", "op": "Const", "attr": {"value": {"tensor": {"dtype": "DT_FLOAT", "tensorShape": {"dim": [{"size": "88"}]}}}, "dtype": {"type": "DT_FLOAT"}}}, {"name": "StatefulPartitionedCall/sequential_6/keras_layer_4/StatefulPartitionedCall/StatefulPartitionedCall/StatefulPartitionedCall/predict/MobilenetV3/expanded_conv_12/expand/Conv2D_weights", "op": "Const", "attr": {"dtype": {"type": "DT_FLOAT"}, "value": {"tensor": {"dtype": "DT_FLOAT", "tensorShape": {"dim": [{"size": "1"}, {"size": "1"}, {"size": "88"}, {"size": "528"}]}}}}}, {"name": "StatefulPartitionedCall/sequential_6/keras_layer_4/StatefulPartitionedCall/StatefulPartitionedCall/StatefulPartitionedCall/predict/MobilenetV3/expanded_conv_12/expand/Conv2D_bn_offset", "op": "Const", "attr": {"value": {"tensor": {"dtype": "DT_FLOAT", "tensorShape": {"dim": [{"size": "528"}]}}}, "dtype": {"type": "DT_FLOAT"}}}, {"name": "StatefulPartitionedCall/sequential_6/keras_layer_4/StatefulPartitionedCall/StatefulPartitionedCall/StatefulPartitionedCall/predict/MobilenetV3/expanded_conv_12/depthwise/depthwise_weights", "op": "Const", "attr": {"value": {"tensor": {"dtype": "DT_FLOAT", "tensorShape": {"dim": [{"size": "5"}, {"size": "5"}, {"size": "528"}, {"size": "1"}]}}}, "dtype": {"type": "DT_FLOAT"}}}, {"name": "StatefulPartitionedCall/sequential_6/keras_layer_4/StatefulPartitionedCall/StatefulPartitionedCall/StatefulPartitionedCall/predict/MobilenetV3/expanded_conv_12/depthwise/depthwise_bn_offset", "op": "Const", "attr": {"value": {"tensor": {"dtype": "DT_FLOAT", "tensorShape": {"dim": [{"size": "528"}]}}}, "dtype": {"type": "DT_FLOAT"}}}, {"name": "StatefulPartitionedCall/sequential_6/keras_layer_4/StatefulPartitionedCall/StatefulPartitionedCall/StatefulPartitionedCall/predict/MobilenetV3/expanded_conv_12/project/Conv2D_weights", "op": "Const", "attr": {"value": {"tensor": {"dtype": "DT_FLOAT", "tensorShape": {"dim": [{"size": "1"}, {"size": "1"}, {"size": "528"}, {"size": "120"}]}}}, "dtype": {"type": "DT_FLOAT"}}}, {"name": "StatefulPartitionedCall/sequential_6/keras_layer_4/StatefulPartitionedCall/StatefulPartitionedCall/StatefulPartitionedCall/predict/MobilenetV3/expanded_conv_12/project/Conv2D_bn_offset", "op": "Const", "attr": {"value": {"tensor": {"dtype": "DT_FLOAT", "tensorShape": {"dim": [{"size": "120"}]}}}, "dtype": {"type": "DT_FLOAT"}}}, {"name": "StatefulPartitionedCall/sequential_6/keras_layer_4/StatefulPartitionedCall/StatefulPartitionedCall/StatefulPartitionedCall/predict/MobilenetV3/expanded_conv_13/expand/Conv2D_weights", "op": "Const", "attr": {"value": {"tensor": {"dtype": "DT_FLOAT", "tensorShape": {"dim": [{"size": "1"}, {"size": "1"}, {"size": "120"}, {"size": "720"}]}}}, "dtype": {"type": "DT_FLOAT"}}}, {"name": "StatefulPartitionedCall/sequential_6/keras_layer_4/StatefulPartitionedCall/StatefulPartitionedCall/StatefulPartitionedCall/predict/MobilenetV3/expanded_conv_13/expand/Conv2D_bn_offset", "op": "Const", "attr": {"value": {"tensor": {"dtype": "DT_FLOAT", "tensorShape": {"dim": [{"size": "720"}]}}}, "dtype": {"type": "DT_FLOAT"}}}, {"name": "StatefulPartitionedCall/sequential_6/keras_layer_4/StatefulPartitionedCall/StatefulPartitionedCall/StatefulPartitionedCall/predict/MobilenetV3/expanded_conv_13/depthwise/depthwise_weights", "op": "Const", "attr": {"value": {"tensor": {"dtype": "DT_FLOAT", "tensorShape": {"dim": [{"size": "5"}, {"size": "5"}, {"size": "720"}, {"size": "1"}]}}}, "dtype": {"type": "DT_FLOAT"}}}, {"name": "StatefulPartitionedCall/sequential_6/keras_layer_4/StatefulPartitionedCall/StatefulPartitionedCall/StatefulPartitionedCall/predict/MobilenetV3/expanded_conv_13/depthwise/depthwise_bn_offset", "op": "Const", "attr": {"value": {"tensor": {"dtype": "DT_FLOAT", "tensorShape": {"dim": [{"size": "720"}]}}}, "dtype": {"type": "DT_FLOAT"}}}, {"name": "StatefulPartitionedCall/sequential_6/keras_layer_4/StatefulPartitionedCall/StatefulPartitionedCall/StatefulPartitionedCall/predict/MobilenetV3/Conv_2/hard_swish/mul_1/y", "op": "Const", "input": ["^keras_layer_4_input"], "attr": {"dtype": {"type": "DT_FLOAT"}, "value": {"tensor": {"dtype": "DT_FLOAT", "tensorShape": {}}}}}, {"name": "StatefulPartitionedCall/sequential_6/keras_layer_4/StatefulPartitionedCall/StatefulPartitionedCall/StatefulPartitionedCall/predict/MobilenetV3/Conv_1/hard_swish/mul_1/y", "op": "Const", "input": ["^keras_layer_4_input"], "attr": {"value": {"tensor": {"dtype": "DT_FLOAT", "tensorShape": {}}}, "dtype": {"type": "DT_FLOAT"}}}, {"name": "StatefulPartitionedCall/sequential_6/keras_layer_4/StatefulPartitionedCall/StatefulPartitionedCall/StatefulPartitionedCall/predict/MobilenetV3/expanded_conv_14/squeeze_excite/Conv_1/mul/y", "op": "Const", "input": ["^keras_layer_4_input"], "attr": {"dtype": {"type": "DT_FLOAT"}, "value": {"tensor": {"dtype": "DT_FLOAT", "tensorShape": {}}}}}, {"name": "StatefulPartitionedCall/sequential_6/keras_layer_4/StatefulPartitionedCall/StatefulPartitionedCall/StatefulPartitionedCall/predict/MobilenetV3/expanded_conv_14/squeeze_excite/Mean/reduction_indices", "op": "Const", "input": ["^keras_layer_4_input"], "attr": {"dtype": {"type": "DT_INT32"}, "value": {"tensor": {"dtype": "DT_INT32", "tensorShape": {"dim": [{"size": "2"}]}}}}}, {"name": "Func/StatefulPartitionedCall/sequential_6/keras_layer_4/StatefulPartitionedCall/StatefulPartitionedCall/StatefulPartitionedCall/input/_1059", "op": "Const", "input": ["^keras_layer_4_input"], "attr": {"dtype": {"type": "DT_FLOAT"}, "value": {"tensor": {"dtype": "DT_FLOAT", "tensorShape": {"dim": [{"size": "1"}, {"size": "1"}, {"size": "720"}, {"size": "184"}]}}}}}, {"name": "Func/StatefulPartitionedCall/sequential_6/keras_layer_4/StatefulPartitionedCall/StatefulPartitionedCall/StatefulPartitionedCall/input/_1060", "op": "Const", "input": ["^keras_layer_4_input"], "attr": {"value": {"tensor": {"dtype": "DT_FLOAT", "tensorShape": {"dim": [{"size": "184"}]}}}, "dtype": {"type": "DT_FLOAT"}}}, {"name": "Func/StatefulPartitionedCall/sequential_6/keras_layer_4/StatefulPartitionedCall/StatefulPartitionedCall/StatefulPartitionedCall/input/_1061", "op": "Const", "input": ["^keras_layer_4_input"], "attr": {"dtype": {"type": "DT_FLOAT"}, "value": {"tensor": {"dtype": "DT_FLOAT", "tensorShape": {"dim": [{"size": "1"}, {"size": "1"}, {"size": "184"}, {"size": "720"}]}}}}}, {"name": "Func/StatefulPartitionedCall/sequential_6/keras_layer_4/StatefulPartitionedCall/StatefulPartitionedCall/StatefulPartitionedCall/input/_1062", "op": "Const", "input": ["^keras_layer_4_input"], "attr": {"value": {"tensor": {"dtype": "DT_FLOAT", "tensorShape": {"dim": [{"size": "720"}]}}}, "dtype": {"type": "DT_FLOAT"}}}, {"name": "StatefulPartitionedCall/sequential_6/keras_layer_4/StatefulPartitionedCall/StatefulPartitionedCall/StatefulPartitionedCall/predict/MobilenetV3/expanded_conv_14/squeeze_excite/Conv_1/add/y", "op": "Const", "input": ["^keras_layer_4_input"], "attr": {"value": {"tensor": {"dtype": "DT_FLOAT", "tensorShape": {}}}, "dtype": {"type": "DT_FLOAT"}}}, {"name": "StatefulPartitionedCall/sequential_6/keras_layer_4/StatefulPartitionedCall/StatefulPartitionedCall/StatefulPartitionedCall/predict/MobilenetV3/expanded_conv_14/depthwise/hard_swish/mul_1/y", "op": "Const", "input": ["^keras_layer_4_input"], "attr": {"dtype": {"type": "DT_FLOAT"}, "value": {"tensor": {"dtype": "DT_FLOAT", "tensorShape": {}}}}}, {"name": "StatefulPartitionedCall/sequential_6/keras_layer_4/StatefulPartitionedCall/StatefulPartitionedCall/StatefulPartitionedCall/predict/MobilenetV3/expanded_conv_14/expand/hard_swish/mul_1/y", "op": "Const", "input": ["^keras_layer_4_input"], "attr": {"dtype": {"type": "DT_FLOAT"}, "value": {"tensor": {"dtype": "DT_FLOAT", "tensorShape": {}}}}}, {"name": "StatefulPartitionedCall/sequential_6/keras_layer_4/StatefulPartitionedCall/StatefulPartitionedCall/StatefulPartitionedCall/predict/MobilenetV3/expanded_conv_14/expand/hard_swish/add/y", "op": "Const", "input": ["^keras_layer_4_input"], "attr": {"value": {"tensor": {"dtype": "DT_FLOAT", "tensorShape": {}}}, "dtype": {"type": "DT_FLOAT"}}}, {"name": "StatefulPartitionedCall/sequential_6/keras_layer_4/StatefulPartitionedCall/StatefulPartitionedCall/StatefulPartitionedCall/predict/MobilenetV3/expanded_conv_14/depthwise/hard_swish/add/y", "op": "Const", "input": ["^keras_layer_4_input"], "attr": {"dtype": {"type": "DT_FLOAT"}, "value": {"tensor": {"dtype": "DT_FLOAT", "tensorShape": {}}}}}, {"name": "StatefulPartitionedCall/sequential_6/keras_layer_4/StatefulPartitionedCall/StatefulPartitionedCall/StatefulPartitionedCall/predict/MobilenetV3/expanded_conv_13/squeeze_excite/Conv_1/mul/y", "op": "Const", "input": ["^keras_layer_4_input"], "attr": {"value": {"tensor": {"dtype": "DT_FLOAT", "tensorShape": {}}}, "dtype": {"type": "DT_FLOAT"}}}, {"name": "StatefulPartitionedCall/sequential_6/keras_layer_4/StatefulPartitionedCall/StatefulPartitionedCall/StatefulPartitionedCall/predict/MobilenetV3/expanded_conv_13/squeeze_excite/Mean/reduction_indices", "op": "Const", "input": ["^keras_layer_4_input"], "attr": {"value": {"tensor": {"dtype": "DT_INT32", "tensorShape": {"dim": [{"size": "2"}]}}}, "dtype": {"type": "DT_INT32"}}}, {"name": "Func/StatefulPartitionedCall/sequential_6/keras_layer_4/StatefulPartitionedCall/StatefulPartitionedCall/StatefulPartitionedCall/input/_1040", "op": "Const", "input": ["^keras_layer_4_input"], "attr": {"value": {"tensor": {"dtype": "DT_FLOAT", "tensorShape": {"dim": [{"size": "1"}, {"size": "1"}, {"size": "720"}, {"size": "184"}]}}}, "dtype": {"type": "DT_FLOAT"}}}, {"name": "Func/StatefulPartitionedCall/sequential_6/keras_layer_4/StatefulPartitionedCall/StatefulPartitionedCall/StatefulPartitionedCall/input/_1041", "op": "Const", "input": ["^keras_layer_4_input"], "attr": {"value": {"tensor": {"dtype": "DT_FLOAT", "tensorShape": {"dim": [{"size": "184"}]}}}, "dtype": {"type": "DT_FLOAT"}}}, {"name": "Func/StatefulPartitionedCall/sequential_6/keras_layer_4/StatefulPartitionedCall/StatefulPartitionedCall/StatefulPartitionedCall/input/_1042", "op": "Const", "input": ["^keras_layer_4_input"], "attr": {"dtype": {"type": "DT_FLOAT"}, "value": {"tensor": {"dtype": "DT_FLOAT", "tensorShape": {"dim": [{"size": "1"}, {"size": "1"}, {"size": "184"}, {"size": "720"}]}}}}}, {"name": "Func/StatefulPartitionedCall/sequential_6/keras_layer_4/StatefulPartitionedCall/StatefulPartitionedCall/StatefulPartitionedCall/input/_1043", "op": "Const", "input": ["^keras_layer_4_input"], "attr": {"dtype": {"type": "DT_FLOAT"}, "value": {"tensor": {"dtype": "DT_FLOAT", "tensorShape": {"dim": [{"size": "720"}]}}}}}, {"name": "StatefulPartitionedCall/sequential_6/keras_layer_4/StatefulPartitionedCall/StatefulPartitionedCall/StatefulPartitionedCall/predict/MobilenetV3/expanded_conv_13/squeeze_excite/Conv_1/add/y", "op": "Const", "input": ["^keras_layer_4_input"], "attr": {"value": {"tensor": {"dtype": "DT_FLOAT", "tensorShape": {}}}, "dtype": {"type": "DT_FLOAT"}}}, {"name": "StatefulPartitionedCall/sequential_6/keras_layer_4/StatefulPartitionedCall/StatefulPartitionedCall/StatefulPartitionedCall/predict/MobilenetV3/expanded_conv_13/depthwise/hard_swish/mul_1/y", "op": "Const", "input": ["^keras_layer_4_input"], "attr": {"value": {"tensor": {"dtype": "DT_FLOAT", "tensorShape": {}}}, "dtype": {"type": "DT_FLOAT"}}}, {"name": "StatefulPartitionedCall/sequential_6/keras_layer_4/StatefulPartitionedCall/StatefulPartitionedCall/StatefulPartitionedCall/predict/MobilenetV3/expanded_conv_13/expand/hard_swish/mul_1/y", "op": "Const", "input": ["^keras_layer_4_input"], "attr": {"value": {"tensor": {"dtype": "DT_FLOAT", "tensorShape": {}}}, "dtype": {"type": "DT_FLOAT"}}}, {"name": "StatefulPartitionedCall/sequential_6/keras_layer_4/StatefulPartitionedCall/StatefulPartitionedCall/StatefulPartitionedCall/predict/MobilenetV3/expanded_conv_13/expand/hard_swish/add/y", "op": "Const", "input": ["^keras_layer_4_input"], "attr": {"value": {"tensor": {"dtype": "DT_FLOAT", "tensorShape": {}}}, "dtype": {"type": "DT_FLOAT"}}}, {"name": "StatefulPartitionedCall/sequential_6/keras_layer_4/StatefulPartitionedCall/StatefulPartitionedCall/StatefulPartitionedCall/predict/MobilenetV3/expanded_conv_13/depthwise/hard_swish/add/y", "op": "Const", "input": ["^keras_layer_4_input"], "attr": {"dtype": {"type": "DT_FLOAT"}, "value": {"tensor": {"dtype": "DT_FLOAT", "tensorShape": {}}}}}, {"name": "StatefulPartitionedCall/sequential_6/keras_layer_4/StatefulPartitionedCall/StatefulPartitionedCall/StatefulPartitionedCall/predict/MobilenetV3/expanded_conv_12/squeeze_excite/Conv_1/mul/y", "op": "Const", "input": ["^keras_layer_4_input"], "attr": {"value": {"tensor": {"dtype": "DT_FLOAT", "tensorShape": {}}}, "dtype": {"type": "DT_FLOAT"}}}, {"name": "StatefulPartitionedCall/sequential_6/keras_layer_4/StatefulPartitionedCall/StatefulPartitionedCall/StatefulPartitionedCall/predict/MobilenetV3/expanded_conv_12/squeeze_excite/Mean/reduction_indices", "op": "Const", "input": ["^keras_layer_4_input"], "attr": {"value": {"tensor": {"dtype": "DT_INT32", "tensorShape": {"dim": [{"size": "2"}]}}}, "dtype": {"type": "DT_INT32"}}}, {"name": "Func/StatefulPartitionedCall/sequential_6/keras_layer_4/StatefulPartitionedCall/StatefulPartitionedCall/StatefulPartitionedCall/input/_1021", "op": "Const", "input": ["^keras_layer_4_input"], "attr": {"dtype": {"type": "DT_FLOAT"}, "value": {"tensor": {"dtype": "DT_FLOAT", "tensorShape": {"dim": [{"size": "1"}, {"size": "1"}, {"size": "528"}, {"size": "136"}]}}}}}, {"name": "Func/StatefulPartitionedCall/sequential_6/keras_layer_4/StatefulPartitionedCall/StatefulPartitionedCall/StatefulPartitionedCall/input/_1022", "op": "Const", "input": ["^keras_layer_4_input"], "attr": {"value": {"tensor": {"dtype": "DT_FLOAT", "tensorShape": {"dim": [{"size": "136"}]}}}, "dtype": {"type": "DT_FLOAT"}}}, {"name": "Func/StatefulPartitionedCall/sequential_6/keras_layer_4/StatefulPartitionedCall/StatefulPartitionedCall/StatefulPartitionedCall/input/_1023", "op": "Const", "input": ["^keras_layer_4_input"], "attr": {"dtype": {"type": "DT_FLOAT"}, "value": {"tensor": {"dtype": "DT_FLOAT", "tensorShape": {"dim": [{"size": "1"}, {"size": "1"}, {"size": "136"}, {"size": "528"}]}}}}}, {"name": "Func/StatefulPartitionedCall/sequential_6/keras_layer_4/StatefulPartitionedCall/StatefulPartitionedCall/StatefulPartitionedCall/input/_1024", "op": "Const", "input": ["^keras_layer_4_input"], "attr": {"value": {"tensor": {"dtype": "DT_FLOAT", "tensorShape": {"dim": [{"size": "528"}]}}}, "dtype": {"type": "DT_FLOAT"}}}, {"name": "StatefulPartitionedCall/sequential_6/keras_layer_4/StatefulPartitionedCall/StatefulPartitionedCall/StatefulPartitionedCall/predict/MobilenetV3/expanded_conv_12/squeeze_excite/Conv_1/add/y", "op": "Const", "input": ["^keras_layer_4_input"], "attr": {"value": {"tensor": {"dtype": "DT_FLOAT", "tensorShape": {}}}, "dtype": {"type": "DT_FLOAT"}}}, {"name": "StatefulPartitionedCall/sequential_6/keras_layer_4/StatefulPartitionedCall/StatefulPartitionedCall/StatefulPartitionedCall/predict/MobilenetV3/expanded_conv_12/depthwise/hard_swish/mul_1/y", "op": "Const", "input": ["^keras_layer_4_input"], "attr": {"dtype": {"type": "DT_FLOAT"}, "value": {"tensor": {"dtype": "DT_FLOAT", "tensorShape": {}}}}}, {"name": "StatefulPartitionedCall/sequential_6/keras_layer_4/StatefulPartitionedCall/StatefulPartitionedCall/StatefulPartitionedCall/predict/MobilenetV3/expanded_conv_12/expand/hard_swish/mul_1/y", "op": "Const", "input": ["^keras_layer_4_input"], "attr": {"value": {"tensor": {"dtype": "DT_FLOAT", "tensorShape": {}}}, "dtype": {"type": "DT_FLOAT"}}}, {"name": "StatefulPartitionedCall/sequential_6/keras_layer_4/StatefulPartitionedCall/StatefulPartitionedCall/StatefulPartitionedCall/predict/MobilenetV3/expanded_conv_11/squeeze_excite/Conv_1/mul/y", "op": "Const", "input": ["^keras_layer_4_input"], "attr": {"dtype": {"type": "DT_FLOAT"}, "value": {"tensor": {"dtype": "DT_FLOAT", "tensorShape": {}}}}}, {"name": "StatefulPartitionedCall/sequential_6/keras_layer_4/StatefulPartitionedCall/StatefulPartitionedCall/StatefulPartitionedCall/predict/MobilenetV3/expanded_conv_11/squeeze_excite/Mean/reduction_indices", "op": "Const", "input": ["^keras_layer_4_input"], "attr": {"value": {"tensor": {"dtype": "DT_INT32", "tensorShape": {"dim": [{"size": "2"}]}}}, "dtype": {"type": "DT_INT32"}}}, {"name": "Func/StatefulPartitionedCall/sequential_6/keras_layer_4/StatefulPartitionedCall/StatefulPartitionedCall/StatefulPartitionedCall/input/_1002", "op": "Const", "input": ["^keras_layer_4_input"], "attr": {"value": {"tensor": {"dtype": "DT_FLOAT", "tensorShape": {"dim": [{"size": "1"}, {"size": "1"}, {"size": "528"}, {"size": "136"}]}}}, "dtype": {"type": "DT_FLOAT"}}}, {"name": "Func/StatefulPartitionedCall/sequential_6/keras_layer_4/StatefulPartitionedCall/StatefulPartitionedCall/StatefulPartitionedCall/input/_1003", "op": "Const", "input": ["^keras_layer_4_input"], "attr": {"value": {"tensor": {"dtype": "DT_FLOAT", "tensorShape": {"dim": [{"size": "136"}]}}}, "dtype": {"type": "DT_FLOAT"}}}, {"name": "Func/StatefulPartitionedCall/sequential_6/keras_layer_4/StatefulPartitionedCall/StatefulPartitionedCall/StatefulPartitionedCall/input/_1004", "op": "Const", "input": ["^keras_layer_4_input"], "attr": {"value": {"tensor": {"dtype": "DT_FLOAT", "tensorShape": {"dim": [{"size": "1"}, {"size": "1"}, {"size": "136"}, {"size": "528"}]}}}, "dtype": {"type": "DT_FLOAT"}}}, {"name": "Func/StatefulPartitionedCall/sequential_6/keras_layer_4/StatefulPartitionedCall/StatefulPartitionedCall/StatefulPartitionedCall/input/_1005", "op": "Const", "input": ["^keras_layer_4_input"], "attr": {"value": {"tensor": {"dtype": "DT_FLOAT", "tensorShape": {"dim": [{"size": "528"}]}}}, "dtype": {"type": "DT_FLOAT"}}}, {"name": "StatefulPartitionedCall/sequential_6/keras_layer_4/StatefulPartitionedCall/StatefulPartitionedCall/StatefulPartitionedCall/predict/MobilenetV3/expanded_conv_11/squeeze_excite/Conv_1/add/y", "op": "Const", "input": ["^keras_layer_4_input"], "attr": {"value": {"tensor": {"dtype": "DT_FLOAT", "tensorShape": {}}}, "dtype": {"type": "DT_FLOAT"}}}, {"name": "StatefulPartitionedCall/sequential_6/keras_layer_4/StatefulPartitionedCall/StatefulPartitionedCall/StatefulPartitionedCall/predict/MobilenetV3/expanded_conv_11/depthwise/hard_swish/mul_1/y", "op": "Const", "input": ["^keras_layer_4_input"], "attr": {"value": {"tensor": {"dtype": "DT_FLOAT", "tensorShape": {}}}, "dtype": {"type": "DT_FLOAT"}}}, {"name": "StatefulPartitionedCall/sequential_6/keras_layer_4/StatefulPartitionedCall/StatefulPartitionedCall/StatefulPartitionedCall/predict/MobilenetV3/expanded_conv_11/expand/hard_swish/mul_1/y", "op": "Const", "input": ["^keras_layer_4_input"], "attr": {"dtype": {"type": "DT_FLOAT"}, "value": {"tensor": {"dtype": "DT_FLOAT", "tensorShape": {}}}}}, {"name": "StatefulPartitionedCall/sequential_6/keras_layer_4/StatefulPartitionedCall/StatefulPartitionedCall/StatefulPartitionedCall/predict/MobilenetV3/expanded_conv_11/expand/hard_swish/add/y", "op": "Const", "input": ["^keras_layer_4_input"], "attr": {"value": {"tensor": {"dtype": "DT_FLOAT", "tensorShape": {}}}, "dtype": {"type": "DT_FLOAT"}}}, {"name": "StatefulPartitionedCall/sequential_6/keras_layer_4/StatefulPartitionedCall/StatefulPartitionedCall/StatefulPartitionedCall/predict/MobilenetV3/expanded_conv_11/depthwise/hard_swish/add/y", "op": "Const", "input": ["^keras_layer_4_input"], "attr": {"dtype": {"type": "DT_FLOAT"}, "value": {"tensor": {"dtype": "DT_FLOAT", "tensorShape": {}}}}}, {"name": "StatefulPartitionedCall/sequential_6/keras_layer_4/StatefulPartitionedCall/StatefulPartitionedCall/StatefulPartitionedCall/predict/MobilenetV3/expanded_conv_10/squeeze_excite/Conv_1/mul/y", "op": "Const", "input": ["^keras_layer_4_input"], "attr": {"dtype": {"type": "DT_FLOAT"}, "value": {"tensor": {"dtype": "DT_FLOAT", "tensorShape": {}}}}}, {"name": "StatefulPartitionedCall/sequential_6/keras_layer_4/StatefulPartitionedCall/StatefulPartitionedCall/StatefulPartitionedCall/predict/MobilenetV3/expanded_conv_10/squeeze_excite/Mean/reduction_indices", "op": "Const", "input": ["^keras_layer_4_input"], "attr": {"value": {"tensor": {"dtype": "DT_INT32", "tensorShape": {"dim": [{"size": "2"}]}}}, "dtype": {"type": "DT_INT32"}}}, {"name": "Func/StatefulPartitionedCall/sequential_6/keras_layer_4/StatefulPartitionedCall/StatefulPartitionedCall/StatefulPartitionedCall/input/_983", "op": "Const", "input": ["^keras_layer_4_input"], "attr": {"value": {"tensor": {"dtype": "DT_FLOAT", "tensorShape": {"dim": [{"size": "1"}, {"size": "1"}, {"size": "384"}, {"size": "96"}]}}}, "dtype": {"type": "DT_FLOAT"}}}, {"name": "Func/StatefulPartitionedCall/sequential_6/keras_layer_4/StatefulPartitionedCall/StatefulPartitionedCall/StatefulPartitionedCall/input/_984", "op": "Const", "input": ["^keras_layer_4_input"], "attr": {"dtype": {"type": "DT_FLOAT"}, "value": {"tensor": {"dtype": "DT_FLOAT", "tensorShape": {"dim": [{"size": "96"}]}}}}}, {"name": "Func/StatefulPartitionedCall/sequential_6/keras_layer_4/StatefulPartitionedCall/StatefulPartitionedCall/StatefulPartitionedCall/input/_985", "op": "Const", "input": ["^keras_layer_4_input"], "attr": {"dtype": {"type": "DT_FLOAT"}, "value": {"tensor": {"dtype": "DT_FLOAT", "tensorShape": {"dim": [{"size": "1"}, {"size": "1"}, {"size": "96"}, {"size": "384"}]}}}}}, {"name": "Func/StatefulPartitionedCall/sequential_6/keras_layer_4/StatefulPartitionedCall/StatefulPartitionedCall/StatefulPartitionedCall/input/_986", "op": "Const", "input": ["^keras_layer_4_input"], "attr": {"value": {"tensor": {"dtype": "DT_FLOAT", "tensorShape": {"dim": [{"size": "384"}]}}}, "dtype": {"type": "DT_FLOAT"}}}, {"name": "StatefulPartitionedCall/sequential_6/keras_layer_4/StatefulPartitionedCall/StatefulPartitionedCall/StatefulPartitionedCall/predict/MobilenetV3/expanded_conv_10/squeeze_excite/Conv_1/add/y", "op": "Const", "input": ["^keras_layer_4_input"], "attr": {"dtype": {"type": "DT_FLOAT"}, "value": {"tensor": {"dtype": "DT_FLOAT", "tensorShape": {}}}}}, {"name": "StatefulPartitionedCall/sequential_6/keras_layer_4/StatefulPartitionedCall/StatefulPartitionedCall/StatefulPartitionedCall/predict/MobilenetV3/expanded_conv_10/depthwise/hard_swish/mul_1/y", "op": "Const", "input": ["^keras_layer_4_input"], "attr": {"value": {"tensor": {"dtype": "DT_FLOAT", "tensorShape": {}}}, "dtype": {"type": "DT_FLOAT"}}}, {"name": "StatefulPartitionedCall/sequential_6/keras_layer_4/StatefulPartitionedCall/StatefulPartitionedCall/StatefulPartitionedCall/predict/MobilenetV3/expanded_conv_10/expand/hard_swish/mul_1/y", "op": "Const", "input": ["^keras_layer_4_input"], "attr": {"value": {"tensor": {"dtype": "DT_FLOAT", "tensorShape": {}}}, "dtype": {"type": "DT_FLOAT"}}}, {"name": "StatefulPartitionedCall/sequential_6/keras_layer_4/StatefulPartitionedCall/StatefulPartitionedCall/StatefulPartitionedCall/predict/MobilenetV3/expanded_conv_9/depthwise/hard_swish/mul_1/y", "op": "Const", "input": ["^keras_layer_4_input"], "attr": {"dtype": {"type": "DT_FLOAT"}, "value": {"tensor": {"dtype": "DT_FLOAT", "tensorShape": {}}}}}, {"name": "StatefulPartitionedCall/sequential_6/keras_layer_4/StatefulPartitionedCall/StatefulPartitionedCall/StatefulPartitionedCall/predict/MobilenetV3/expanded_conv_9/expand/hard_swish/mul_1/y", "op": "Const", "input": ["^keras_layer_4_input"], "attr": {"dtype": {"type": "DT_FLOAT"}, "value": {"tensor": {"dtype": "DT_FLOAT", "tensorShape": {}}}}}, {"name": "StatefulPartitionedCall/sequential_6/keras_layer_4/StatefulPartitionedCall/StatefulPartitionedCall/StatefulPartitionedCall/predict/MobilenetV3/expanded_conv_9/expand/hard_swish/add/y", "op": "Const", "input": ["^keras_layer_4_input"], "attr": {"value": {"tensor": {"dtype": "DT_FLOAT", "tensorShape": {}}}, "dtype": {"type": "DT_FLOAT"}}}, {"name": "StatefulPartitionedCall/sequential_6/keras_layer_4/StatefulPartitionedCall/StatefulPartitionedCall/StatefulPartitionedCall/predict/MobilenetV3/expanded_conv_9/depthwise/hard_swish/add/y", "op": "Const", "input": ["^keras_layer_4_input"], "attr": {"value": {"tensor": {"dtype": "DT_FLOAT", "tensorShape": {}}}, "dtype": {"type": "DT_FLOAT"}}}, {"name": "StatefulPartitionedCall/sequential_6/keras_layer_4/StatefulPartitionedCall/StatefulPartitionedCall/StatefulPartitionedCall/predict/MobilenetV3/expanded_conv_8/depthwise/hard_swish/mul_1/y", "op": "Const", "input": ["^keras_layer_4_input"], "attr": {"dtype": {"type": "DT_FLOAT"}, "value": {"tensor": {"dtype": "DT_FLOAT", "tensorShape": {}}}}}, {"name": "StatefulPartitionedCall/sequential_6/keras_layer_4/StatefulPartitionedCall/StatefulPartitionedCall/StatefulPartitionedCall/predict/MobilenetV3/expanded_conv_8/expand/hard_swish/mul_1/y", "op": "Const", "input": ["^keras_layer_4_input"], "attr": {"dtype": {"type": "DT_FLOAT"}, "value": {"tensor": {"dtype": "DT_FLOAT", "tensorShape": {}}}}}, {"name": "StatefulPartitionedCall/sequential_6/keras_layer_4/StatefulPartitionedCall/StatefulPartitionedCall/StatefulPartitionedCall/predict/MobilenetV3/expanded_conv_8/expand/hard_swish/add/y", "op": "Const", "input": ["^keras_layer_4_input"], "attr": {"dtype": {"type": "DT_FLOAT"}, "value": {"tensor": {"dtype": "DT_FLOAT", "tensorShape": {}}}}}, {"name": "StatefulPartitionedCall/sequential_6/keras_layer_4/StatefulPartitionedCall/StatefulPartitionedCall/StatefulPartitionedCall/predict/MobilenetV3/expanded_conv_8/depthwise/hard_swish/add/y", "op": "Const", "input": ["^keras_layer_4_input"], "attr": {"dtype": {"type": "DT_FLOAT"}, "value": {"tensor": {"dtype": "DT_FLOAT", "tensorShape": {}}}}}, {"name": "StatefulPartitionedCall/sequential_6/keras_layer_4/StatefulPartitionedCall/StatefulPartitionedCall/StatefulPartitionedCall/predict/MobilenetV3/expanded_conv_7/depthwise/hard_swish/mul_1/y", "op": "Const", "input": ["^keras_layer_4_input"], "attr": {"dtype": {"type": "DT_FLOAT"}, "value": {"tensor": {"dtype": "DT_FLOAT", "tensorShape": {}}}}}, {"name": "StatefulPartitionedCall/sequential_6/keras_layer_4/StatefulPartitionedCall/StatefulPartitionedCall/StatefulPartitionedCall/predict/MobilenetV3/expanded_conv_7/expand/hard_swish/mul_1/y", "op": "Const", "input": ["^keras_layer_4_input"], "attr": {"dtype": {"type": "DT_FLOAT"}, "value": {"tensor": {"dtype": "DT_FLOAT", "tensorShape": {}}}}}, {"name": "StatefulPartitionedCall/sequential_6/keras_layer_4/StatefulPartitionedCall/StatefulPartitionedCall/StatefulPartitionedCall/predict/MobilenetV3/expanded_conv_7/expand/hard_swish/add/y", "op": "Const", "input": ["^keras_layer_4_input"], "attr": {"value": {"tensor": {"dtype": "DT_FLOAT", "tensorShape": {}}}, "dtype": {"type": "DT_FLOAT"}}}, {"name": "StatefulPartitionedCall/sequential_6/keras_layer_4/StatefulPartitionedCall/StatefulPartitionedCall/StatefulPartitionedCall/predict/MobilenetV3/expanded_conv_7/depthwise/hard_swish/add/y", "op": "Const", "input": ["^keras_layer_4_input"], "attr": {"dtype": {"type": "DT_FLOAT"}, "value": {"tensor": {"dtype": "DT_FLOAT", "tensorShape": {}}}}}, {"name": "StatefulPartitionedCall/sequential_6/keras_layer_4/StatefulPartitionedCall/StatefulPartitionedCall/StatefulPartitionedCall/predict/MobilenetV3/expanded_conv_6/depthwise/hard_swish/mul_1/y", "op": "Const", "input": ["^keras_layer_4_input"], "attr": {"dtype": {"type": "DT_FLOAT"}, "value": {"tensor": {"dtype": "DT_FLOAT", "tensorShape": {}}}}}, {"name": "StatefulPartitionedCall/sequential_6/keras_layer_4/StatefulPartitionedCall/StatefulPartitionedCall/StatefulPartitionedCall/predict/MobilenetV3/expanded_conv_6/expand/hard_swish/mul_1/y", "op": "Const", "input": ["^keras_layer_4_input"], "attr": {"dtype": {"type": "DT_FLOAT"}, "value": {"tensor": {"dtype": "DT_FLOAT", "tensorShape": {}}}}}, {"name": "StatefulPartitionedCall/sequential_6/keras_layer_4/StatefulPartitionedCall/StatefulPartitionedCall/StatefulPartitionedCall/predict/MobilenetV3/expanded_conv_5/squeeze_excite/Conv_1/mul/y", "op": "Const", "input": ["^keras_layer_4_input"], "attr": {"value": {"tensor": {"dtype": "DT_FLOAT", "tensorShape": {}}}, "dtype": {"type": "DT_FLOAT"}}}, {"name": "StatefulPartitionedCall/sequential_6/keras_layer_4/StatefulPartitionedCall/StatefulPartitionedCall/StatefulPartitionedCall/predict/MobilenetV3/expanded_conv_5/squeeze_excite/Mean/reduction_indices", "op": "Const", "input": ["^keras_layer_4_input"], "attr": {"dtype": {"type": "DT_INT32"}, "value": {"tensor": {"dtype": "DT_INT32", "tensorShape": {"dim": [{"size": "2"}]}}}}}, {"name": "Func/StatefulPartitionedCall/sequential_6/keras_layer_4/StatefulPartitionedCall/StatefulPartitionedCall/StatefulPartitionedCall/input/_904", "op": "Const", "input": ["^keras_layer_4_input"], "attr": {"value": {"tensor": {"dtype": "DT_FLOAT", "tensorShape": {"dim": [{"size": "1"}, {"size": "1"}, {"size": "96"}, {"size": "24"}]}}}, "dtype": {"type": "DT_FLOAT"}}}, {"name": "Func/StatefulPartitionedCall/sequential_6/keras_layer_4/StatefulPartitionedCall/StatefulPartitionedCall/StatefulPartitionedCall/input/_905", "op": "Const", "input": ["^keras_layer_4_input"], "attr": {"value": {"tensor": {"dtype": "DT_FLOAT", "tensorShape": {"dim": [{"size": "24"}]}}}, "dtype": {"type": "DT_FLOAT"}}}, {"name": "Func/StatefulPartitionedCall/sequential_6/keras_layer_4/StatefulPartitionedCall/StatefulPartitionedCall/StatefulPartitionedCall/input/_906", "op": "Const", "input": ["^keras_layer_4_input"], "attr": {"value": {"tensor": {"dtype": "DT_FLOAT", "tensorShape": {"dim": [{"size": "1"}, {"size": "1"}, {"size": "24"}, {"size": "96"}]}}}, "dtype": {"type": "DT_FLOAT"}}}, {"name": "Func/StatefulPartitionedCall/sequential_6/keras_layer_4/StatefulPartitionedCall/StatefulPartitionedCall/StatefulPartitionedCall/input/_907", "op": "Const", "input": ["^keras_layer_4_input"], "attr": {"value": {"tensor": {"dtype": "DT_FLOAT", "tensorShape": {"dim": [{"size": "96"}]}}}, "dtype": {"type": "DT_FLOAT"}}}, {"name": "StatefulPartitionedCall/sequential_6/keras_layer_4/StatefulPartitionedCall/StatefulPartitionedCall/StatefulPartitionedCall/predict/MobilenetV3/expanded_conv_5/squeeze_excite/Conv_1/add/y", "op": "Const", "input": ["^keras_layer_4_input"], "attr": {"dtype": {"type": "DT_FLOAT"}, "value": {"tensor": {"dtype": "DT_FLOAT", "tensorShape": {}}}}}, {"name": "StatefulPartitionedCall/sequential_6/keras_layer_4/StatefulPartitionedCall/StatefulPartitionedCall/StatefulPartitionedCall/predict/MobilenetV3/expanded_conv_4/squeeze_excite/Conv_1/mul/y", "op": "Const", "input": ["^keras_layer_4_input"], "attr": {"value": {"tensor": {"dtype": "DT_FLOAT", "tensorShape": {}}}, "dtype": {"type": "DT_FLOAT"}}}, {"name": "StatefulPartitionedCall/sequential_6/keras_layer_4/StatefulPartitionedCall/StatefulPartitionedCall/StatefulPartitionedCall/predict/MobilenetV3/expanded_conv_4/squeeze_excite/Mean/reduction_indices", "op": "Const", "input": ["^keras_layer_4_input"], "attr": {"value": {"tensor": {"dtype": "DT_INT32", "tensorShape": {"dim": [{"size": "2"}]}}}, "dtype": {"type": "DT_INT32"}}}, {"name": "Func/StatefulPartitionedCall/sequential_6/keras_layer_4/StatefulPartitionedCall/StatefulPartitionedCall/StatefulPartitionedCall/input/_885", "op": "Const", "input": ["^keras_layer_4_input"], "attr": {"dtype": {"type": "DT_FLOAT"}, "value": {"tensor": {"dtype": "DT_FLOAT", "tensorShape": {"dim": [{"size": "1"}, {"size": "1"}, {"size": "96"}, {"size": "24"}]}}}}}, {"name": "Func/StatefulPartitionedCall/sequential_6/keras_layer_4/StatefulPartitionedCall/StatefulPartitionedCall/StatefulPartitionedCall/input/_886", "op": "Const", "input": ["^keras_layer_4_input"], "attr": {"value": {"tensor": {"dtype": "DT_FLOAT", "tensorShape": {"dim": [{"size": "24"}]}}}, "dtype": {"type": "DT_FLOAT"}}}, {"name": "Func/StatefulPartitionedCall/sequential_6/keras_layer_4/StatefulPartitionedCall/StatefulPartitionedCall/StatefulPartitionedCall/input/_887", "op": "Const", "input": ["^keras_layer_4_input"], "attr": {"value": {"tensor": {"dtype": "DT_FLOAT", "tensorShape": {"dim": [{"size": "1"}, {"size": "1"}, {"size": "24"}, {"size": "96"}]}}}, "dtype": {"type": "DT_FLOAT"}}}, {"name": "Func/StatefulPartitionedCall/sequential_6/keras_layer_4/StatefulPartitionedCall/StatefulPartitionedCall/StatefulPartitionedCall/input/_888", "op": "Const", "input": ["^keras_layer_4_input"], "attr": {"dtype": {"type": "DT_FLOAT"}, "value": {"tensor": {"dtype": "DT_FLOAT", "tensorShape": {"dim": [{"size": "96"}]}}}}}, {"name": "StatefulPartitionedCall/sequential_6/keras_layer_4/StatefulPartitionedCall/StatefulPartitionedCall/StatefulPartitionedCall/predict/MobilenetV3/expanded_conv_4/squeeze_excite/Conv_1/add/y", "op": "Const", "input": ["^keras_layer_4_input"], "attr": {"value": {"tensor": {"dtype": "DT_FLOAT", "tensorShape": {}}}, "dtype": {"type": "DT_FLOAT"}}}, {"name": "StatefulPartitionedCall/sequential_6/keras_layer_4/StatefulPartitionedCall/StatefulPartitionedCall/StatefulPartitionedCall/predict/MobilenetV3/expanded_conv_3/squeeze_excite/Conv_1/mul/y", "op": "Const", "input": ["^keras_layer_4_input"], "attr": {"value": {"tensor": {"dtype": "DT_FLOAT", "tensorShape": {}}}, "dtype": {"type": "DT_FLOAT"}}}, {"name": "StatefulPartitionedCall/sequential_6/keras_layer_4/StatefulPartitionedCall/StatefulPartitionedCall/StatefulPartitionedCall/predict/MobilenetV3/expanded_conv_3/squeeze_excite/Mean/reduction_indices", "op": "Const", "input": ["^keras_layer_4_input"], "attr": {"value": {"tensor": {"dtype": "DT_INT32", "tensorShape": {"dim": [{"size": "2"}]}}}, "dtype": {"type": "DT_INT32"}}}, {"name": "Func/StatefulPartitionedCall/sequential_6/keras_layer_4/StatefulPartitionedCall/StatefulPartitionedCall/StatefulPartitionedCall/input/_866", "op": "Const", "input": ["^keras_layer_4_input"], "attr": {"value": {"tensor": {"dtype": "DT_FLOAT", "tensorShape": {"dim": [{"size": "1"}, {"size": "1"}, {"size": "72"}, {"size": "24"}]}}}, "dtype": {"type": "DT_FLOAT"}}}, {"name": "Func/StatefulPartitionedCall/sequential_6/keras_layer_4/StatefulPartitionedCall/StatefulPartitionedCall/StatefulPartitionedCall/input/_867", "op": "Const", "input": ["^keras_layer_4_input"], "attr": {"dtype": {"type": "DT_FLOAT"}, "value": {"tensor": {"dtype": "DT_FLOAT", "tensorShape": {"dim": [{"size": "24"}]}}}}}, {"name": "Func/StatefulPartitionedCall/sequential_6/keras_layer_4/StatefulPartitionedCall/StatefulPartitionedCall/StatefulPartitionedCall/input/_868", "op": "Const", "input": ["^keras_layer_4_input"], "attr": {"dtype": {"type": "DT_FLOAT"}, "value": {"tensor": {"dtype": "DT_FLOAT", "tensorShape": {"dim": [{"size": "1"}, {"size": "1"}, {"size": "24"}, {"size": "72"}]}}}}}, {"name": "Func/StatefulPartitionedCall/sequential_6/keras_layer_4/StatefulPartitionedCall/StatefulPartitionedCall/StatefulPartitionedCall/input/_869", "op": "Const", "input": ["^keras_layer_4_input"], "attr": {"value": {"tensor": {"dtype": "DT_FLOAT", "tensorShape": {"dim": [{"size": "72"}]}}}, "dtype": {"type": "DT_FLOAT"}}}, {"name": "StatefulPartitionedCall/sequential_6/keras_layer_4/StatefulPartitionedCall/StatefulPartitionedCall/StatefulPartitionedCall/predict/MobilenetV3/expanded_conv_3/squeeze_excite/Conv_1/add/y", "op": "Const", "input": ["^keras_layer_4_input"], "attr": {"value": {"tensor": {"dtype": "DT_FLOAT", "tensorShape": {}}}, "dtype": {"type": "DT_FLOAT"}}}, {"name": "StatefulPartitionedCall/sequential_6/keras_layer_4/StatefulPartitionedCall/StatefulPartitionedCall/StatefulPartitionedCall/predict/MobilenetV3/Conv/hard_swish/mul_1/y", "op": "Const", "input": ["^keras_layer_4_input"], "attr": {"value": {"tensor": {"dtype": "DT_FLOAT", "tensorShape": {}}}, "dtype": {"type": "DT_FLOAT"}}}, {"name": "StatefulPartitionedCall/sequential_6/keras_layer_4/StatefulPartitionedCall/StatefulPartitionedCall/StatefulPartitionedCall/predict/hub_input/Mul/y", "op": "Const", "input": ["^keras_layer_4_input"], "attr": {"dtype": {"type": "DT_FLOAT"}, "value": {"tensor": {"dtype": "DT_FLOAT", "tensorShape": {}}}}}, {"name": "StatefulPartitionedCall/sequential_6/keras_layer_4/StatefulPartitionedCall/StatefulPartitionedCall/StatefulPartitionedCall/predict/hub_input/Sub/y", "op": "Const", "input": ["^keras_layer_4_input"], "attr": {"value": {"tensor": {"dtype": "DT_FLOAT", "tensorShape": {}}}, "dtype": {"type": "DT_FLOAT"}}}, {"name": "StatefulPartitionedCall/sequential_6/keras_layer_4/StatefulPartitionedCall/StatefulPartitionedCall/StatefulPartitionedCall/predict/MobilenetV3/Conv/hard_swish/add/y", "op": "Const", "input": ["^keras_layer_4_input"], "attr": {"value": {"tensor": {"dtype": "DT_FLOAT", "tensorShape": {}}}, "dtype": {"type": "DT_FLOAT"}}}, {"name": "StatefulPartitionedCall/sequential_6/keras_layer_4/StatefulPartitionedCall/StatefulPartitionedCall/StatefulPartitionedCall/predict/MobilenetV3/expanded_conv_6/expand/hard_swish/add/y", "op": "Const", "input": ["^keras_layer_4_input"], "attr": {"dtype": {"type": "DT_FLOAT"}, "value": {"tensor": {"dtype": "DT_FLOAT", "tensorShape": {}}}}}, {"name": "StatefulPartitionedCall/sequential_6/keras_layer_4/StatefulPartitionedCall/StatefulPartitionedCall/StatefulPartitionedCall/predict/MobilenetV3/expanded_conv_6/depthwise/hard_swish/add/y", "op": "Const", "input": ["^keras_layer_4_input"], "attr": {"value": {"tensor": {"dtype": "DT_FLOAT", "tensorShape": {}}}, "dtype": {"type": "DT_FLOAT"}}}, {"name": "StatefulPartitionedCall/sequential_6/keras_layer_4/StatefulPartitionedCall/StatefulPartitionedCall/StatefulPartitionedCall/predict/MobilenetV3/expanded_conv_10/expand/hard_swish/add/y", "op": "Const", "input": ["^keras_layer_4_input"], "attr": {"dtype": {"type": "DT_FLOAT"}, "value": {"tensor": {"dtype": "DT_FLOAT", "tensorShape": {}}}}}, {"name": "StatefulPartitionedCall/sequential_6/keras_layer_4/StatefulPartitionedCall/StatefulPartitionedCall/StatefulPartitionedCall/predict/MobilenetV3/expanded_conv_10/depthwise/hard_swish/add/y", "op": "Const", "input": ["^keras_layer_4_input"], "attr": {"dtype": {"type": "DT_FLOAT"}, "value": {"tensor": {"dtype": "DT_FLOAT", "tensorShape": {}}}}}, {"name": "StatefulPartitionedCall/sequential_6/keras_layer_4/StatefulPartitionedCall/StatefulPartitionedCall/StatefulPartitionedCall/predict/MobilenetV3/expanded_conv_12/expand/hard_swish/add/y", "op": "Const", "input": ["^keras_layer_4_input"], "attr": {"dtype": {"type": "DT_FLOAT"}, "value": {"tensor": {"dtype": "DT_FLOAT", "tensorShape": {}}}}}, {"name": "StatefulPartitionedCall/sequential_6/keras_layer_4/StatefulPartitionedCall/StatefulPartitionedCall/StatefulPartitionedCall/predict/MobilenetV3/expanded_conv_12/depthwise/hard_swish/add/y", "op": "Const", "input": ["^keras_layer_4_input"], "attr": {"dtype": {"type": "DT_FLOAT"}, "value": {"tensor": {"dtype": "DT_FLOAT", "tensorShape": {}}}}}, {"name": "StatefulPartitionedCall/sequential_6/keras_layer_4/StatefulPartitionedCall/StatefulPartitionedCall/StatefulPartitionedCall/predict/MobilenetV3/Conv_1/hard_swish/add/y", "op": "Const", "input": ["^keras_layer_4_input"], "attr": {"value": {"tensor": {"dtype": "DT_FLOAT", "tensorShape": {}}}, "dtype": {"type": "DT_FLOAT"}}}, {"name": "Func/StatefulPartitionedCall/sequential_6/keras_layer_4/StatefulPartitionedCall/StatefulPartitionedCall/StatefulPartitionedCall/input/_1073", "op": "Const", "input": ["^keras_layer_4_input"], "attr": {"value": {"tensor": {"dtype": "DT_FLOAT", "tensorShape": {"dim": [{"size": "1"}, {"size": "1"}, {"size": "720"}, {"size": "1280"}]}}}, "dtype": {"type": "DT_FLOAT"}}}, {"name": "Func/StatefulPartitionedCall/sequential_6/keras_layer_4/StatefulPartitionedCall/StatefulPartitionedCall/StatefulPartitionedCall/input/_1074", "op": "Const", "input": ["^keras_layer_4_input"], "attr": {"dtype": {"type": "DT_FLOAT"}, "value": {"tensor": {"dtype": "DT_FLOAT", "tensorShape": {"dim": [{"size": "1280"}]}}}}}, {"name": "StatefulPartitionedCall/sequential_6/keras_layer_4/StatefulPartitionedCall/StatefulPartitionedCall/StatefulPartitionedCall/predict/MobilenetV3/Conv_2/hard_swish/add/y", "op": "Const", "input": ["^keras_layer_4_input"], "attr": {"value": {"tensor": {"dtype": "DT_FLOAT", "tensorShape": {}}}, "dtype": {"type": "DT_FLOAT"}}}, {"name": "StatefulPartitionedCall/sequential_6/keras_layer_4/StatefulPartitionedCall/StatefulPartitionedCall/StatefulPartitionedCall/predict/hub_input/Mul", "op": "Mul", "input": ["keras_layer_4_input", "StatefulPartitionedCall/sequential_6/keras_layer_4/StatefulPartitionedCall/StatefulPartitionedCall/StatefulPartitionedCall/predict/hub_input/Mul/y"], "attr": {"T": {"type": "DT_FLOAT"}}}, {"name": "StatefulPartitionedCall/sequential_6/keras_layer_4/StatefulPartitionedCall/StatefulPartitionedCall/StatefulPartitionedCall/predict/hub_input/Sub", "op": "Sub", "input": ["StatefulPartitionedCall/sequential_6/keras_layer_4/StatefulPartitionedCall/StatefulPartitionedCall/StatefulPartitionedCall/predict/hub_input/Mul", "StatefulPartitionedCall/sequential_6/keras_layer_4/StatefulPartitionedCall/StatefulPartitionedCall/StatefulPartitionedCall/predict/hub_input/Sub/y"], "attr": {"T": {"type": "DT_FLOAT"}}}, {"name": "StatefulPartitionedCall/sequential_6/keras_layer_4/StatefulPartitionedCall/StatefulPartitionedCall/StatefulPartitionedCall/predict/MobilenetV3/Conv/BatchNorm/FusedBatchNormV3", "op": "_FusedConv2D", "input": ["StatefulPartitionedCall/sequential_6/keras_layer_4/StatefulPartitionedCall/StatefulPartitionedCall/StatefulPartitionedCall/predict/hub_input/Sub", "StatefulPartitionedCall/sequential_6/keras_layer_4/StatefulPartitionedCall/StatefulPartitionedCall/StatefulPartitionedCall/predict/MobilenetV3/Conv/Conv2D_weights", "StatefulPartitionedCall/sequential_6/keras_layer_4/StatefulPartitionedCall/StatefulPartitionedCall/StatefulPartitionedCall/predict/MobilenetV3/Conv/Conv2D_bn_offset"], "device": "/device:CPU:0", "attr": {"num_host_args": {"i": "0"}, "fused_ops": {"list": {"s": ["Qmlhc0FkZA=="]}}, "leakyrelu_alpha": {"f": 0.2}, "explicit_paddings": {"list": {}}, "data_format": {"s": "TkhXQw=="}, "padding": {"s": "U0FNRQ=="}, "dilations": {"list": {"i": ["1", "1", "1", "1"]}}, "num_args": {"i": "1"}, "use_cudnn_on_gpu": {"b": true}, "strides": {"list": {"i": ["1", "2", "2", "1"]}}, "T": {"type": "DT_FLOAT"}, "TArgs": {"list": {"type": ["DT_FLOAT"]}}, "filter_format": {"s": "SFdJTw=="}, "epsilon": {"f": 0.0}}}, {"name": "StatefulPartitionedCall/sequential_6/keras_layer_4/StatefulPartitionedCall/StatefulPartitionedCall/StatefulPartitionedCall/predict/MobilenetV3/Conv/hard_swish/mul", "op": "Mul", "input": ["StatefulPartitionedCall/sequential_6/keras_layer_4/StatefulPartitionedCall/StatefulPartitionedCall/StatefulPartitionedCall/predict/MobilenetV3/Conv/hard_swish/mul_1/y", "StatefulPartitionedCall/sequential_6/keras_layer_4/StatefulPartitionedCall/StatefulPartitionedCall/StatefulPartitionedCall/predict/MobilenetV3/Conv/BatchNorm/FusedBatchNormV3"], "attr": {"_grappler_ArithmeticOptimizer_MinimizeBroadcasts": {"b": true}, "T": {"type": "DT_FLOAT"}}}, {"name": "StatefulPartitionedCall/sequential_6/keras_layer_4/StatefulPartitionedCall/StatefulPartitionedCall/StatefulPartitionedCall/predict/MobilenetV3/Conv/hard_swish/add", "op": "AddV2", "input": ["StatefulPartitionedCall/sequential_6/keras_layer_4/StatefulPartitionedCall/StatefulPartitionedCall/StatefulPartitionedCall/predict/MobilenetV3/Conv/BatchNorm/FusedBatchNormV3", "StatefulPartitionedCall/sequential_6/keras_layer_4/StatefulPartitionedCall/StatefulPartitionedCall/StatefulPartitionedCall/predict/MobilenetV3/Conv/hard_swish/add/y"], "attr": {"T": {"type": "DT_FLOAT"}}}, {"name": "StatefulPartitionedCall/sequential_6/keras_layer_4/StatefulPartitionedCall/StatefulPartitionedCall/StatefulPartitionedCall/predict/MobilenetV3/Conv/hard_swish/Relu6", "op": "Relu6", "input": ["StatefulPartitionedCall/sequential_6/keras_layer_4/StatefulPartitionedCall/StatefulPartitionedCall/StatefulPartitionedCall/predict/MobilenetV3/Conv/hard_swish/add"], "attr": {"T": {"type": "DT_FLOAT"}}}, {"name": "StatefulPartitionedCall/sequential_6/keras_layer_4/StatefulPartitionedCall/StatefulPartitionedCall/StatefulPartitionedCall/predict/MobilenetV3/Conv/hard_swish/mul_1", "op": "Mul", "input": ["StatefulPartitionedCall/sequential_6/keras_layer_4/StatefulPartitionedCall/StatefulPartitionedCall/StatefulPartitionedCall/predict/MobilenetV3/Conv/hard_swish/mul", "StatefulPartitionedCall/sequential_6/keras_layer_4/StatefulPartitionedCall/StatefulPartitionedCall/StatefulPartitionedCall/predict/MobilenetV3/Conv/hard_swish/Relu6"], "attr": {"_grappler_ArithmeticOptimizer_MinimizeBroadcasts": {"b": true}, "T": {"type": "DT_FLOAT"}}}, {"name": "StatefulPartitionedCall/sequential_6/keras_layer_4/StatefulPartitionedCall/StatefulPartitionedCall/StatefulPartitionedCall/predict/MobilenetV3/expanded_conv/depthwise/depthwise", "op": "FusedDepthwiseConv2dNative", "input": ["StatefulPartitionedCall/sequential_6/keras_layer_4/StatefulPartitionedCall/StatefulPartitionedCall/StatefulPartitionedCall/predict/MobilenetV3/Conv/hard_swish/mul_1", "StatefulPartitionedCall/sequential_6/keras_layer_4/StatefulPartitionedCall/StatefulPartitionedCall/StatefulPartitionedCall/predict/MobilenetV3/expanded_conv/depthwise/depthwise_weights", "StatefulPartitionedCall/sequential_6/keras_layer_4/StatefulPartitionedCall/StatefulPartitionedCall/StatefulPartitionedCall/predict/MobilenetV3/expanded_conv/depthwise/depthwise_bn_offset"], "attr": {"explicit_paddings": {"list": {}}, "strides": {"list": {"i": ["1", "1", "1", "1"]}}, "padding": {"s": "U0FNRQ=="}, "dilations": {"list": {"i": ["1", "1", "1", "1"]}}, "data_format": {"s": "TkhXQw=="}, "T": {"type": "DT_FLOAT"}, "num_args": {"i": "1"}, "fused_ops": {"list": {"s": ["Qmlhc0FkZA==", "UmVsdQ=="]}}}}, {"name": "StatefulPartitionedCall/sequential_6/keras_layer_4/StatefulPartitionedCall/StatefulPartitionedCall/StatefulPartitionedCall/predict/MobilenetV3/expanded_conv/project/BatchNorm/FusedBatchNormV3", "op": "_FusedConv2D", "input": ["StatefulPartitionedCall/sequential_6/keras_layer_4/StatefulPartitionedCall/StatefulPartitionedCall/StatefulPartitionedCall/predict/MobilenetV3/expanded_conv/depthwise/depthwise", "StatefulPartitionedCall/sequential_6/keras_layer_4/StatefulPartitionedCall/StatefulPartitionedCall/StatefulPartitionedCall/predict/MobilenetV3/expanded_conv/project/Conv2D_weights", "StatefulPartitionedCall/sequential_6/keras_layer_4/StatefulPartitionedCall/StatefulPartitionedCall/StatefulPartitionedCall/predict/MobilenetV3/expanded_conv/project/Conv2D_bn_offset"], "device": "/device:CPU:0", "attr": {"epsilon": {"f": 0.0}, "num_args": {"i": "1"}, "explicit_paddings": {"list": {}}, "filter_format": {"s": "SFdJTw=="}, "padding": {"s": "U0FNRQ=="}, "dilations": {"list": {"i": ["1", "1", "1", "1"]}}, "strides": {"list": {"i": ["1", "1", "1", "1"]}}, "use_cudnn_on_gpu": {"b": true}, "T": {"type": "DT_FLOAT"}, "leakyrelu_alpha": {"f": 0.2}, "TArgs": {"list": {"type": ["DT_FLOAT"]}}, "data_format": {"s": "TkhXQw=="}, "num_host_args": {"i": "0"}, "fused_ops": {"list": {"s": ["Qmlhc0FkZA=="]}}}}, {"name": "StatefulPartitionedCall/sequential_6/keras_layer_4/StatefulPartitionedCall/StatefulPartitionedCall/StatefulPartitionedCall/predict/MobilenetV3/expanded_conv/add", "op": "AddV2", "input": ["StatefulPartitionedCall/sequential_6/keras_layer_4/StatefulPartitionedCall/StatefulPartitionedCall/StatefulPartitionedCall/predict/MobilenetV3/expanded_conv/project/BatchNorm/FusedBatchNormV3", "StatefulPartitionedCall/sequential_6/keras_layer_4/StatefulPartitionedCall/StatefulPartitionedCall/StatefulPartitionedCall/predict/MobilenetV3/Conv/hard_swish/mul_1"], "attr": {"T": {"type": "DT_FLOAT"}}}, {"name": "StatefulPartitionedCall/sequential_6/keras_layer_4/StatefulPartitionedCall/StatefulPartitionedCall/StatefulPartitionedCall/predict/MobilenetV3/expanded_conv_1/expand/Relu", "op": "_FusedConv2D", "input": ["StatefulPartitionedCall/sequential_6/keras_layer_4/StatefulPartitionedCall/StatefulPartitionedCall/StatefulPartitionedCall/predict/MobilenetV3/expanded_conv/add", "StatefulPartitionedCall/sequential_6/keras_layer_4/StatefulPartitionedCall/StatefulPartitionedCall/StatefulPartitionedCall/predict/MobilenetV3/expanded_conv_1/expand/Conv2D_weights", "StatefulPartitionedCall/sequential_6/keras_layer_4/StatefulPartitionedCall/StatefulPartitionedCall/StatefulPartitionedCall/predict/MobilenetV3/expanded_conv_1/expand/Conv2D_bn_offset"], "device": "/device:CPU:0", "attr": {"use_cudnn_on_gpu": {"b": true}, "T": {"type": "DT_FLOAT"}, "TArgs": {"list": {"type": ["DT_FLOAT"]}}, "explicit_paddings": {"list": {}}, "dilations": {"list": {"i": ["1", "1", "1", "1"]}}, "num_host_args": {"i": "0"}, "leakyrelu_alpha": {"f": 0.2}, "fused_ops": {"list": {"s": ["Qmlhc0FkZA==", "UmVsdQ=="]}}, "data_format": {"s": "TkhXQw=="}, "strides": {"list": {"i": ["1", "1", "1", "1"]}}, "filter_format": {"s": "SFdJTw=="}, "padding": {"s": "U0FNRQ=="}, "epsilon": {"f": 0.0}, "num_args": {"i": "1"}}}, {"name": "StatefulPartitionedCall/sequential_6/keras_layer_4/StatefulPartitionedCall/StatefulPartitionedCall/StatefulPartitionedCall/predict/MobilenetV3/expanded_conv_1/depthwise/depthwise", "op": "FusedDepthwiseConv2dNative", "input": ["StatefulPartitionedCall/sequential_6/keras_layer_4/StatefulPartitionedCall/StatefulPartitionedCall/StatefulPartitionedCall/predict/MobilenetV3/expanded_conv_1/expand/Relu", "StatefulPartitionedCall/sequential_6/keras_layer_4/StatefulPartitionedCall/StatefulPartitionedCall/StatefulPartitionedCall/predict/MobilenetV3/expanded_conv_1/depthwise/depthwise_weights", "StatefulPartitionedCall/sequential_6/keras_layer_4/StatefulPartitionedCall/StatefulPartitionedCall/StatefulPartitionedCall/predict/MobilenetV3/expanded_conv_1/depthwise/depthwise_bn_offset"], "attr": {"strides": {"list": {"i": ["1", "2", "2", "1"]}}, "dilations": {"list": {"i": ["1", "1", "1", "1"]}}, "padding": {"s": "U0FNRQ=="}, "data_format": {"s": "TkhXQw=="}, "T": {"type": "DT_FLOAT"}, "explicit_paddings": {"list": {}}, "num_args": {"i": "1"}, "fused_ops": {"list": {"s": ["Qmlhc0FkZA==", "UmVsdQ=="]}}}}, {"name": "StatefulPartitionedCall/sequential_6/keras_layer_4/StatefulPartitionedCall/StatefulPartitionedCall/StatefulPartitionedCall/predict/MobilenetV3/expanded_conv_1/project/BatchNorm/FusedBatchNormV3", "op": "_FusedConv2D", "input": ["StatefulPartitionedCall/sequential_6/keras_layer_4/StatefulPartitionedCall/StatefulPartitionedCall/StatefulPartitionedCall/predict/MobilenetV3/expanded_conv_1/depthwise/depthwise", "StatefulPartitionedCall/sequential_6/keras_layer_4/StatefulPartitionedCall/StatefulPartitionedCall/StatefulPartitionedCall/predict/MobilenetV3/expanded_conv_1/project/Conv2D_weights", "StatefulPartitionedCall/sequential_6/keras_layer_4/StatefulPartitionedCall/StatefulPartitionedCall/StatefulPartitionedCall/predict/MobilenetV3/expanded_conv_1/project/Conv2D_bn_offset"], "device": "/device:CPU:0", "attr": {"padding": {"s": "U0FNRQ=="}, "leakyrelu_alpha": {"f": 0.2}, "num_host_args": {"i": "0"}, "T": {"type": "DT_FLOAT"}, "data_format": {"s": "TkhXQw=="}, "filter_format": {"s": "SFdJTw=="}, "fused_ops": {"list": {"s": ["Qmlhc0FkZA=="]}}, "strides": {"list": {"i": ["1", "1", "1", "1"]}}, "num_args": {"i": "1"}, "epsilon": {"f": 0.0}, "use_cudnn_on_gpu": {"b": true}, "TArgs": {"list": {"type": ["DT_FLOAT"]}}, "explicit_paddings": {"list": {}}, "dilations": {"list": {"i": ["1", "1", "1", "1"]}}}}, {"name": "StatefulPartitionedCall/sequential_6/keras_layer_4/StatefulPartitionedCall/StatefulPartitionedCall/StatefulPartitionedCall/predict/MobilenetV3/expanded_conv_2/expand/Relu", "op": "_FusedConv2D", "input": ["StatefulPartitionedCall/sequential_6/keras_layer_4/StatefulPartitionedCall/StatefulPartitionedCall/StatefulPartitionedCall/predict/MobilenetV3/expanded_conv_1/project/BatchNorm/FusedBatchNormV3", "StatefulPartitionedCall/sequential_6/keras_layer_4/StatefulPartitionedCall/StatefulPartitionedCall/StatefulPartitionedCall/predict/MobilenetV3/expanded_conv_2/expand/Conv2D_weights", "StatefulPartitionedCall/sequential_6/keras_layer_4/StatefulPartitionedCall/StatefulPartitionedCall/StatefulPartitionedCall/predict/MobilenetV3/expanded_conv_2/expand/Conv2D_bn_offset"], "device": "/device:CPU:0", "attr": {"strides": {"list": {"i": ["1", "1", "1", "1"]}}, "TArgs": {"list": {"type": ["DT_FLOAT"]}}, "padding": {"s": "U0FNRQ=="}, "fused_ops": {"list": {"s": ["Qmlhc0FkZA==", "UmVsdQ=="]}}, "explicit_paddings": {"list": {}}, "T": {"type": "DT_FLOAT"}, "num_args": {"i": "1"}, "filter_format": {"s": "SFdJTw=="}, "dilations": {"list": {"i": ["1", "1", "1", "1"]}}, "use_cudnn_on_gpu": {"b": true}, "num_host_args": {"i": "0"}, "data_format": {"s": "TkhXQw=="}, "epsilon": {"f": 0.0}, "leakyrelu_alpha": {"f": 0.2}}}, {"name": "StatefulPartitionedCall/sequential_6/keras_layer_4/StatefulPartitionedCall/StatefulPartitionedCall/StatefulPartitionedCall/predict/MobilenetV3/expanded_conv_2/depthwise/depthwise", "op": "FusedDepthwiseConv2dNative", "input": ["StatefulPartitionedCall/sequential_6/keras_layer_4/StatefulPartitionedCall/StatefulPartitionedCall/StatefulPartitionedCall/predict/MobilenetV3/expanded_conv_2/expand/Relu", "StatefulPartitionedCall/sequential_6/keras_layer_4/StatefulPartitionedCall/StatefulPartitionedCall/StatefulPartitionedCall/predict/MobilenetV3/expanded_conv_2/depthwise/depthwise_weights", "StatefulPartitionedCall/sequential_6/keras_layer_4/StatefulPartitionedCall/StatefulPartitionedCall/StatefulPartitionedCall/predict/MobilenetV3/expanded_conv_2/depthwise/depthwise_bn_offset"], "attr": {"strides": {"list": {"i": ["1", "1", "1", "1"]}}, "data_format": {"s": "TkhXQw=="}, "padding": {"s": "U0FNRQ=="}, "explicit_paddings": {"list": {}}, "dilations": {"list": {"i": ["1", "1", "1", "1"]}}, "T": {"type": "DT_FLOAT"}, "num_args": {"i": "1"}, "fused_ops": {"list": {"s": ["Qmlhc0FkZA==", "UmVsdQ=="]}}}}, {"name": "StatefulPartitionedCall/sequential_6/keras_layer_4/StatefulPartitionedCall/StatefulPartitionedCall/StatefulPartitionedCall/predict/MobilenetV3/expanded_conv_2/project/BatchNorm/FusedBatchNormV3", "op": "_FusedConv2D", "input": ["StatefulPartitionedCall/sequential_6/keras_layer_4/StatefulPartitionedCall/StatefulPartitionedCall/StatefulPartitionedCall/predict/MobilenetV3/expanded_conv_2/depthwise/depthwise", "StatefulPartitionedCall/sequential_6/keras_layer_4/StatefulPartitionedCall/StatefulPartitionedCall/StatefulPartitionedCall/predict/MobilenetV3/expanded_conv_2/project/Conv2D_weights", "StatefulPartitionedCall/sequential_6/keras_layer_4/StatefulPartitionedCall/StatefulPartitionedCall/StatefulPartitionedCall/predict/MobilenetV3/expanded_conv_2/project/Conv2D_bn_offset"], "device": "/device:CPU:0", "attr": {"TArgs": {"list": {"type": ["DT_FLOAT"]}}, "filter_format": {"s": "SFdJTw=="}, "padding": {"s": "U0FNRQ=="}, "leakyrelu_alpha": {"f": 0.2}, "strides": {"list": {"i": ["1", "1", "1", "1"]}}, "use_cudnn_on_gpu": {"b": true}, "num_host_args": {"i": "0"}, "data_format": {"s": "TkhXQw=="}, "T": {"type": "DT_FLOAT"}, "dilations": {"list": {"i": ["1", "1", "1", "1"]}}, "explicit_paddings": {"list": {}}, "num_args": {"i": "1"}, "fused_ops": {"list": {"s": ["Qmlhc0FkZA=="]}}, "epsilon": {"f": 0.0}}}, {"name": "StatefulPartitionedCall/sequential_6/keras_layer_4/StatefulPartitionedCall/StatefulPartitionedCall/StatefulPartitionedCall/predict/MobilenetV3/expanded_conv_2/add", "op": "AddV2", "input": ["StatefulPartitionedCall/sequential_6/keras_layer_4/StatefulPartitionedCall/StatefulPartitionedCall/StatefulPartitionedCall/predict/MobilenetV3/expanded_conv_2/project/BatchNorm/FusedBatchNormV3", "StatefulPartitionedCall/sequential_6/keras_layer_4/StatefulPartitionedCall/StatefulPartitionedCall/StatefulPartitionedCall/predict/MobilenetV3/expanded_conv_1/project/BatchNorm/FusedBatchNormV3"], "attr": {"T": {"type": "DT_FLOAT"}}}, {"name": "StatefulPartitionedCall/sequential_6/keras_layer_4/StatefulPartitionedCall/StatefulPartitionedCall/StatefulPartitionedCall/predict/MobilenetV3/expanded_conv_3/expand/Relu", "op": "_FusedConv2D", "input": ["StatefulPartitionedCall/sequential_6/keras_layer_4/StatefulPartitionedCall/StatefulPartitionedCall/StatefulPartitionedCall/predict/MobilenetV3/expanded_conv_2/add", "StatefulPartitionedCall/sequential_6/keras_layer_4/StatefulPartitionedCall/StatefulPartitionedCall/StatefulPartitionedCall/predict/MobilenetV3/expanded_conv_3/expand/Conv2D_weights", "StatefulPartitionedCall/sequential_6/keras_layer_4/StatefulPartitionedCall/StatefulPartitionedCall/StatefulPartitionedCall/predict/MobilenetV3/expanded_conv_3/expand/Conv2D_bn_offset"], "device": "/device:CPU:0", "attr": {"num_host_args": {"i": "0"}, "T": {"type": "DT_FLOAT"}, "dilations": {"list": {"i": ["1", "1", "1", "1"]}}, "fused_ops": {"list": {"s": ["Qmlhc0FkZA==", "UmVsdQ=="]}}, "epsilon": {"f": 0.0}, "strides": {"list": {"i": ["1", "1", "1", "1"]}}, "leakyrelu_alpha": {"f": 0.2}, "use_cudnn_on_gpu": {"b": true}, "data_format": {"s": "TkhXQw=="}, "filter_format": {"s": "SFdJTw=="}, "TArgs": {"list": {"type": ["DT_FLOAT"]}}, "explicit_paddings": {"list": {}}, "padding": {"s": "U0FNRQ=="}, "num_args": {"i": "1"}}}, {"name": "StatefulPartitionedCall/sequential_6/keras_layer_4/StatefulPartitionedCall/StatefulPartitionedCall/StatefulPartitionedCall/predict/MobilenetV3/expanded_conv_3/depthwise/depthwise", "op": "FusedDepthwiseConv2dNative", "input": ["StatefulPartitionedCall/sequential_6/keras_layer_4/StatefulPartitionedCall/StatefulPartitionedCall/StatefulPartitionedCall/predict/MobilenetV3/expanded_conv_3/expand/Relu", "StatefulPartitionedCall/sequential_6/keras_layer_4/StatefulPartitionedCall/StatefulPartitionedCall/StatefulPartitionedCall/predict/MobilenetV3/expanded_conv_3/depthwise/depthwise_weights", "StatefulPartitionedCall/sequential_6/keras_layer_4/StatefulPartitionedCall/StatefulPartitionedCall/StatefulPartitionedCall/predict/MobilenetV3/expanded_conv_3/depthwise/depthwise_bn_offset"], "attr": {"T": {"type": "DT_FLOAT"}, "strides": {"list": {"i": ["1", "2", "2", "1"]}}, "explicit_paddings": {"list": {}}, "padding": {"s": "U0FNRQ=="}, "data_format": {"s": "TkhXQw=="}, "dilations": {"list": {"i": ["1", "1", "1", "1"]}}, "num_args": {"i": "1"}, "fused_ops": {"list": {"s": ["Qmlhc0FkZA==", "UmVsdQ=="]}}}}, {"name": "StatefulPartitionedCall/sequential_6/keras_layer_4/StatefulPartitionedCall/StatefulPartitionedCall/StatefulPartitionedCall/predict/MobilenetV3/expanded_conv_3/squeeze_excite/Mean", "op": "Mean", "input": ["StatefulPartitionedCall/sequential_6/keras_layer_4/StatefulPartitionedCall/StatefulPartitionedCall/StatefulPartitionedCall/predict/MobilenetV3/expanded_conv_3/depthwise/depthwise", "StatefulPartitionedCall/sequential_6/keras_layer_4/StatefulPartitionedCall/StatefulPartitionedCall/StatefulPartitionedCall/predict/MobilenetV3/expanded_conv_3/squeeze_excite/Mean/reduction_indices"], "attr": {"Tidx": {"type": "DT_INT32"}, "T": {"type": "DT_FLOAT"}, "keep_dims": {"b": true}}}, {"name": "StatefulPartitionedCall/sequential_6/keras_layer_4/StatefulPartitionedCall/StatefulPartitionedCall/StatefulPartitionedCall/predict/MobilenetV3/expanded_conv_3/squeeze_excite/Conv/Relu", "op": "_FusedConv2D", "input": ["StatefulPartitionedCall/sequential_6/keras_layer_4/StatefulPartitionedCall/StatefulPartitionedCall/StatefulPartitionedCall/predict/MobilenetV3/expanded_conv_3/squeeze_excite/Mean", "Func/StatefulPartitionedCall/sequential_6/keras_layer_4/StatefulPartitionedCall/StatefulPartitionedCall/StatefulPartitionedCall/input/_866", "Func/StatefulPartitionedCall/sequential_6/keras_layer_4/StatefulPartitionedCall/StatefulPartitionedCall/StatefulPartitionedCall/input/_867"], "device": "/device:CPU:0", "attr": {"num_args": {"i": "1"}, "strides": {"list": {"i": ["1", "1", "1", "1"]}}, "fused_ops": {"list": {"s": ["Qmlhc0FkZA==", "UmVsdQ=="]}}, "epsilon": {"f": 0.0}, "T": {"type": "DT_FLOAT"}, "padding": {"s": "U0FNRQ=="}, "TArgs": {"list": {"type": ["DT_FLOAT"]}}, "dilations": {"list": {"i": ["1", "1", "1", "1"]}}, "leakyrelu_alpha": {"f": 0.2}, "use_cudnn_on_gpu": {"b": true}, "explicit_paddings": {"list": {}}, "data_format": {"s": "TkhXQw=="}, "filter_format": {"s": "SFdJTw=="}, "num_host_args": {"i": "0"}}}, {"name": "StatefulPartitionedCall/sequential_6/keras_layer_4/StatefulPartitionedCall/StatefulPartitionedCall/StatefulPartitionedCall/predict/MobilenetV3/expanded_conv_3/squeeze_excite/Conv_1/BiasAdd", "op": "_FusedConv2D", "input": ["StatefulPartitionedCall/sequential_6/keras_layer_4/StatefulPartitionedCall/StatefulPartitionedCall/StatefulPartitionedCall/predict/MobilenetV3/expanded_conv_3/squeeze_excite/Conv/Relu", "Func/StatefulPartitionedCall/sequential_6/keras_layer_4/StatefulPartitionedCall/StatefulPartitionedCall/StatefulPartitionedCall/input/_868", "Func/StatefulPartitionedCall/sequential_6/keras_layer_4/StatefulPartitionedCall/StatefulPartitionedCall/StatefulPartitionedCall/input/_869"], "device": "/device:CPU:0", "attr": {"dilations": {"list": {"i": ["1", "1", "1", "1"]}}, "leakyrelu_alpha": {"f": 0.2}, "epsilon": {"f": 0.0}, "filter_format": {"s": "SFdJTw=="}, "num_args": {"i": "1"}, "use_cudnn_on_gpu": {"b": true}, "fused_ops": {"list": {"s": ["Qmlhc0FkZA=="]}}, "explicit_paddings": {"list": {}}, "strides": {"list": {"i": ["1", "1", "1", "1"]}}, "data_format": {"s": "TkhXQw=="}, "T": {"type": "DT_FLOAT"}, "num_host_args": {"i": "0"}, "padding": {"s": "U0FNRQ=="}, "TArgs": {"list": {"type": ["DT_FLOAT"]}}}}, {"name": "StatefulPartitionedCall/sequential_6/keras_layer_4/StatefulPartitionedCall/StatefulPartitionedCall/StatefulPartitionedCall/predict/MobilenetV3/expanded_conv_3/squeeze_excite/Conv_1/add", "op": "AddV2", "input": ["StatefulPartitionedCall/sequential_6/keras_layer_4/StatefulPartitionedCall/StatefulPartitionedCall/StatefulPartitionedCall/predict/MobilenetV3/expanded_conv_3/squeeze_excite/Conv_1/BiasAdd", "StatefulPartitionedCall/sequential_6/keras_layer_4/StatefulPartitionedCall/StatefulPartitionedCall/StatefulPartitionedCall/predict/MobilenetV3/expanded_conv_3/squeeze_excite/Conv_1/add/y"], "attr": {"T": {"type": "DT_FLOAT"}}}, {"name": "StatefulPartitionedCall/sequential_6/keras_layer_4/StatefulPartitionedCall/StatefulPartitionedCall/StatefulPartitionedCall/predict/MobilenetV3/expanded_conv_3/squeeze_excite/Conv_1/Relu6", "op": "Relu6", "input": ["StatefulPartitionedCall/sequential_6/keras_layer_4/StatefulPartitionedCall/StatefulPartitionedCall/StatefulPartitionedCall/predict/MobilenetV3/expanded_conv_3/squeeze_excite/Conv_1/add"], "attr": {"T": {"type": "DT_FLOAT"}}}, {"name": "StatefulPartitionedCall/sequential_6/keras_layer_4/StatefulPartitionedCall/StatefulPartitionedCall/StatefulPartitionedCall/predict/MobilenetV3/expanded_conv_3/squeeze_excite/Conv_1/mul", "op": "Mul", "input": ["StatefulPartitionedCall/sequential_6/keras_layer_4/StatefulPartitionedCall/StatefulPartitionedCall/StatefulPartitionedCall/predict/MobilenetV3/expanded_conv_3/squeeze_excite/Conv_1/mul/y", "StatefulPartitionedCall/sequential_6/keras_layer_4/StatefulPartitionedCall/StatefulPartitionedCall/StatefulPartitionedCall/predict/MobilenetV3/expanded_conv_3/squeeze_excite/Conv_1/Relu6"], "attr": {"T": {"type": "DT_FLOAT"}, "_grappler_ArithmeticOptimizer_MinimizeBroadcasts": {"b": true}}}, {"name": "StatefulPartitionedCall/sequential_6/keras_layer_4/StatefulPartitionedCall/StatefulPartitionedCall/StatefulPartitionedCall/predict/MobilenetV3/expanded_conv_3/squeeze_excite/mul", "op": "Mul", "input": ["StatefulPartitionedCall/sequential_6/keras_layer_4/StatefulPartitionedCall/StatefulPartitionedCall/StatefulPartitionedCall/predict/MobilenetV3/expanded_conv_3/squeeze_excite/Conv_1/mul", "StatefulPartitionedCall/sequential_6/keras_layer_4/StatefulPartitionedCall/StatefulPartitionedCall/StatefulPartitionedCall/predict/MobilenetV3/expanded_conv_3/depthwise/depthwise"], "attr": {"T": {"type": "DT_FLOAT"}, "_grappler_ArithmeticOptimizer_MinimizeBroadcasts": {"b": true}}}, {"name": "StatefulPartitionedCall/sequential_6/keras_layer_4/StatefulPartitionedCall/StatefulPartitionedCall/StatefulPartitionedCall/predict/MobilenetV3/expanded_conv_3/project/BatchNorm/FusedBatchNormV3", "op": "_FusedConv2D", "input": ["StatefulPartitionedCall/sequential_6/keras_layer_4/StatefulPartitionedCall/StatefulPartitionedCall/StatefulPartitionedCall/predict/MobilenetV3/expanded_conv_3/squeeze_excite/mul", "StatefulPartitionedCall/sequential_6/keras_layer_4/StatefulPartitionedCall/StatefulPartitionedCall/StatefulPartitionedCall/predict/MobilenetV3/expanded_conv_3/project/Conv2D_weights", "StatefulPartitionedCall/sequential_6/keras_layer_4/StatefulPartitionedCall/StatefulPartitionedCall/StatefulPartitionedCall/predict/MobilenetV3/expanded_conv_3/project/Conv2D_bn_offset"], "device": "/device:CPU:0", "attr": {"epsilon": {"f": 0.0}, "num_host_args": {"i": "0"}, "filter_format": {"s": "SFdJTw=="}, "leakyrelu_alpha": {"f": 0.2}, "strides": {"list": {"i": ["1", "1", "1", "1"]}}, "dilations": {"list": {"i": ["1", "1", "1", "1"]}}, "data_format": {"s": "TkhXQw=="}, "T": {"type": "DT_FLOAT"}, "explicit_paddings": {"list": {}}, "padding": {"s": "U0FNRQ=="}, "TArgs": {"list": {"type": ["DT_FLOAT"]}}, "num_args": {"i": "1"}, "fused_ops": {"list": {"s": ["Qmlhc0FkZA=="]}}, "use_cudnn_on_gpu": {"b": true}}}, {"name": "StatefulPartitionedCall/sequential_6/keras_layer_4/StatefulPartitionedCall/StatefulPartitionedCall/StatefulPartitionedCall/predict/MobilenetV3/expanded_conv_4/expand/Relu", "op": "_FusedConv2D", "input": ["StatefulPartitionedCall/sequential_6/keras_layer_4/StatefulPartitionedCall/StatefulPartitionedCall/StatefulPartitionedCall/predict/MobilenetV3/expanded_conv_3/project/BatchNorm/FusedBatchNormV3", "StatefulPartitionedCall/sequential_6/keras_layer_4/StatefulPartitionedCall/StatefulPartitionedCall/StatefulPartitionedCall/predict/MobilenetV3/expanded_conv_4/expand/Conv2D_weights", "StatefulPartitionedCall/sequential_6/keras_layer_4/StatefulPartitionedCall/StatefulPartitionedCall/StatefulPartitionedCall/predict/MobilenetV3/expanded_conv_4/expand/Conv2D_bn_offset"], "device": "/device:CPU:0", "attr": {"strides": {"list": {"i": ["1", "1", "1", "1"]}}, "fused_ops": {"list": {"s": ["Qmlhc0FkZA==", "UmVsdQ=="]}}, "epsilon": {"f": 0.0}, "T": {"type": "DT_FLOAT"}, "padding": {"s": "U0FNRQ=="}, "TArgs": {"list": {"type": ["DT_FLOAT"]}}, "use_cudnn_on_gpu": {"b": true}, "leakyrelu_alpha": {"f": 0.2}, "data_format": {"s": "TkhXQw=="}, "dilations": {"list": {"i": ["1", "1", "1", "1"]}}, "explicit_paddings": {"list": {}}, "num_host_args": {"i": "0"}, "filter_format": {"s": "SFdJTw=="}, "num_args": {"i": "1"}}}, {"name": "StatefulPartitionedCall/sequential_6/keras_layer_4/StatefulPartitionedCall/StatefulPartitionedCall/StatefulPartitionedCall/predict/MobilenetV3/expanded_conv_4/depthwise/depthwise", "op": "FusedDepthwiseConv2dNative", "input": ["StatefulPartitionedCall/sequential_6/keras_layer_4/StatefulPartitionedCall/StatefulPartitionedCall/StatefulPartitionedCall/predict/MobilenetV3/expanded_conv_4/expand/Relu", "StatefulPartitionedCall/sequential_6/keras_layer_4/StatefulPartitionedCall/StatefulPartitionedCall/StatefulPartitionedCall/predict/MobilenetV3/expanded_conv_4/depthwise/depthwise_weights", "StatefulPartitionedCall/sequential_6/keras_layer_4/StatefulPartitionedCall/StatefulPartitionedCall/StatefulPartitionedCall/predict/MobilenetV3/expanded_conv_4/depthwise/depthwise_bn_offset"], "attr": {"dilations": {"list": {"i": ["1", "1", "1", "1"]}}, "padding": {"s": "U0FNRQ=="}, "strides": {"list": {"i": ["1", "1", "1", "1"]}}, "data_format": {"s": "TkhXQw=="}, "explicit_paddings": {"list": {}}, "T": {"type": "DT_FLOAT"}, "num_args": {"i": "1"}, "fused_ops": {"list": {"s": ["Qmlhc0FkZA==", "UmVsdQ=="]}}}}, {"name": "StatefulPartitionedCall/sequential_6/keras_layer_4/StatefulPartitionedCall/StatefulPartitionedCall/StatefulPartitionedCall/predict/MobilenetV3/expanded_conv_4/squeeze_excite/Mean", "op": "Mean", "input": ["StatefulPartitionedCall/sequential_6/keras_layer_4/StatefulPartitionedCall/StatefulPartitionedCall/StatefulPartitionedCall/predict/MobilenetV3/expanded_conv_4/depthwise/depthwise", "StatefulPartitionedCall/sequential_6/keras_layer_4/StatefulPartitionedCall/StatefulPartitionedCall/StatefulPartitionedCall/predict/MobilenetV3/expanded_conv_4/squeeze_excite/Mean/reduction_indices"], "attr": {"Tidx": {"type": "DT_INT32"}, "keep_dims": {"b": true}, "T": {"type": "DT_FLOAT"}}}, {"name": "StatefulPartitionedCall/sequential_6/keras_layer_4/StatefulPartitionedCall/StatefulPartitionedCall/StatefulPartitionedCall/predict/MobilenetV3/expanded_conv_4/squeeze_excite/Conv/Relu", "op": "_FusedConv2D", "input": ["StatefulPartitionedCall/sequential_6/keras_layer_4/StatefulPartitionedCall/StatefulPartitionedCall/StatefulPartitionedCall/predict/MobilenetV3/expanded_conv_4/squeeze_excite/Mean", "Func/StatefulPartitionedCall/sequential_6/keras_layer_4/StatefulPartitionedCall/StatefulPartitionedCall/StatefulPartitionedCall/input/_885", "Func/StatefulPartitionedCall/sequential_6/keras_layer_4/StatefulPartitionedCall/StatefulPartitionedCall/StatefulPartitionedCall/input/_886"], "device": "/device:CPU:0", "attr": {"TArgs": {"list": {"type": ["DT_FLOAT"]}}, "fused_ops": {"list": {"s": ["Qmlhc0FkZA==", "UmVsdQ=="]}}, "filter_format": {"s": "SFdJTw=="}, "explicit_paddings": {"list": {}}, "data_format": {"s": "TkhXQw=="}, "T": {"type": "DT_FLOAT"}, "padding": {"s": "U0FNRQ=="}, "dilations": {"list": {"i": ["1", "1", "1", "1"]}}, "leakyrelu_alpha": {"f": 0.2}, "epsilon": {"f": 0.0}, "use_cudnn_on_gpu": {"b": true}, "strides": {"list": {"i": ["1", "1", "1", "1"]}}, "num_args": {"i": "1"}, "num_host_args": {"i": "0"}}}, {"name": "StatefulPartitionedCall/sequential_6/keras_layer_4/StatefulPartitionedCall/StatefulPartitionedCall/StatefulPartitionedCall/predict/MobilenetV3/expanded_conv_4/squeeze_excite/Conv_1/BiasAdd", "op": "_FusedConv2D", "input": ["StatefulPartitionedCall/sequential_6/keras_layer_4/StatefulPartitionedCall/StatefulPartitionedCall/StatefulPartitionedCall/predict/MobilenetV3/expanded_conv_4/squeeze_excite/Conv/Relu", "Func/StatefulPartitionedCall/sequential_6/keras_layer_4/StatefulPartitionedCall/StatefulPartitionedCall/StatefulPartitionedCall/input/_887", "Func/StatefulPartitionedCall/sequential_6/keras_layer_4/StatefulPartitionedCall/StatefulPartitionedCall/StatefulPartitionedCall/input/_888"], "device": "/device:CPU:0", "attr": {"leakyrelu_alpha": {"f": 0.2}, "dilations": {"list": {"i": ["1", "1", "1", "1"]}}, "explicit_paddings": {"list": {}}, "data_format": {"s": "TkhXQw=="}, "strides": {"list": {"i": ["1", "1", "1", "1"]}}, "num_args": {"i": "1"}, "TArgs": {"list": {"type": ["DT_FLOAT"]}}, "epsilon": {"f": 0.0}, "filter_format": {"s": "SFdJTw=="}, "use_cudnn_on_gpu": {"b": true}, "T": {"type": "DT_FLOAT"}, "fused_ops": {"list": {"s": ["Qmlhc0FkZA=="]}}, "padding": {"s": "U0FNRQ=="}, "num_host_args": {"i": "0"}}}, {"name": "StatefulPartitionedCall/sequential_6/keras_layer_4/StatefulPartitionedCall/StatefulPartitionedCall/StatefulPartitionedCall/predict/MobilenetV3/expanded_conv_4/squeeze_excite/Conv_1/add", "op": "AddV2", "input": ["StatefulPartitionedCall/sequential_6/keras_layer_4/StatefulPartitionedCall/StatefulPartitionedCall/StatefulPartitionedCall/predict/MobilenetV3/expanded_conv_4/squeeze_excite/Conv_1/BiasAdd", "StatefulPartitionedCall/sequential_6/keras_layer_4/StatefulPartitionedCall/StatefulPartitionedCall/StatefulPartitionedCall/predict/MobilenetV3/expanded_conv_4/squeeze_excite/Conv_1/add/y"], "attr": {"T": {"type": "DT_FLOAT"}}}, {"name": "StatefulPartitionedCall/sequential_6/keras_layer_4/StatefulPartitionedCall/StatefulPartitionedCall/StatefulPartitionedCall/predict/MobilenetV3/expanded_conv_4/squeeze_excite/Conv_1/Relu6", "op": "Relu6", "input": ["StatefulPartitionedCall/sequential_6/keras_layer_4/StatefulPartitionedCall/StatefulPartitionedCall/StatefulPartitionedCall/predict/MobilenetV3/expanded_conv_4/squeeze_excite/Conv_1/add"], "attr": {"T": {"type": "DT_FLOAT"}}}, {"name": "StatefulPartitionedCall/sequential_6/keras_layer_4/StatefulPartitionedCall/StatefulPartitionedCall/StatefulPartitionedCall/predict/MobilenetV3/expanded_conv_4/squeeze_excite/Conv_1/mul", "op": "Mul", "input": ["StatefulPartitionedCall/sequential_6/keras_layer_4/StatefulPartitionedCall/StatefulPartitionedCall/StatefulPartitionedCall/predict/MobilenetV3/expanded_conv_4/squeeze_excite/Conv_1/mul/y", "StatefulPartitionedCall/sequential_6/keras_layer_4/StatefulPartitionedCall/StatefulPartitionedCall/StatefulPartitionedCall/predict/MobilenetV3/expanded_conv_4/squeeze_excite/Conv_1/Relu6"], "attr": {"_grappler_ArithmeticOptimizer_MinimizeBroadcasts": {"b": true}, "T": {"type": "DT_FLOAT"}}}, {"name": "StatefulPartitionedCall/sequential_6/keras_layer_4/StatefulPartitionedCall/StatefulPartitionedCall/StatefulPartitionedCall/predict/MobilenetV3/expanded_conv_4/squeeze_excite/mul", "op": "Mul", "input": ["StatefulPartitionedCall/sequential_6/keras_layer_4/StatefulPartitionedCall/StatefulPartitionedCall/StatefulPartitionedCall/predict/MobilenetV3/expanded_conv_4/squeeze_excite/Conv_1/mul", "StatefulPartitionedCall/sequential_6/keras_layer_4/StatefulPartitionedCall/StatefulPartitionedCall/StatefulPartitionedCall/predict/MobilenetV3/expanded_conv_4/depthwise/depthwise"], "attr": {"T": {"type": "DT_FLOAT"}, "_grappler_ArithmeticOptimizer_MinimizeBroadcasts": {"b": true}}}, {"name": "StatefulPartitionedCall/sequential_6/keras_layer_4/StatefulPartitionedCall/StatefulPartitionedCall/StatefulPartitionedCall/predict/MobilenetV3/expanded_conv_4/project/BatchNorm/FusedBatchNormV3", "op": "_FusedConv2D", "input": ["StatefulPartitionedCall/sequential_6/keras_layer_4/StatefulPartitionedCall/StatefulPartitionedCall/StatefulPartitionedCall/predict/MobilenetV3/expanded_conv_4/squeeze_excite/mul", "StatefulPartitionedCall/sequential_6/keras_layer_4/StatefulPartitionedCall/StatefulPartitionedCall/StatefulPartitionedCall/predict/MobilenetV3/expanded_conv_4/project/Conv2D_weights", "StatefulPartitionedCall/sequential_6/keras_layer_4/StatefulPartitionedCall/StatefulPartitionedCall/StatefulPartitionedCall/predict/MobilenetV3/expanded_conv_4/project/Conv2D_bn_offset"], "device": "/device:CPU:0", "attr": {"num_host_args": {"i": "0"}, "fused_ops": {"list": {"s": ["Qmlhc0FkZA=="]}}, "leakyrelu_alpha": {"f": 0.2}, "explicit_paddings": {"list": {}}, "epsilon": {"f": 0.0}, "filter_format": {"s": "SFdJTw=="}, "strides": {"list": {"i": ["1", "1", "1", "1"]}}, "data_format": {"s": "TkhXQw=="}, "TArgs": {"list": {"type": ["DT_FLOAT"]}}, "dilations": {"list": {"i": ["1", "1", "1", "1"]}}, "T": {"type": "DT_FLOAT"}, "num_args": {"i": "1"}, "padding": {"s": "U0FNRQ=="}, "use_cudnn_on_gpu": {"b": true}}}, {"name": "StatefulPartitionedCall/sequential_6/keras_layer_4/StatefulPartitionedCall/StatefulPartitionedCall/StatefulPartitionedCall/predict/MobilenetV3/expanded_conv_4/add", "op": "AddV2", "input": ["StatefulPartitionedCall/sequential_6/keras_layer_4/StatefulPartitionedCall/StatefulPartitionedCall/StatefulPartitionedCall/predict/MobilenetV3/expanded_conv_4/project/BatchNorm/FusedBatchNormV3", "StatefulPartitionedCall/sequential_6/keras_layer_4/StatefulPartitionedCall/StatefulPartitionedCall/StatefulPartitionedCall/predict/MobilenetV3/expanded_conv_3/project/BatchNorm/FusedBatchNormV3"], "attr": {"T": {"type": "DT_FLOAT"}}}, {"name": "StatefulPartitionedCall/sequential_6/keras_layer_4/StatefulPartitionedCall/StatefulPartitionedCall/StatefulPartitionedCall/predict/MobilenetV3/expanded_conv_5/expand/Relu", "op": "_FusedConv2D", "input": ["StatefulPartitionedCall/sequential_6/keras_layer_4/StatefulPartitionedCall/StatefulPartitionedCall/StatefulPartitionedCall/predict/MobilenetV3/expanded_conv_4/add", "StatefulPartitionedCall/sequential_6/keras_layer_4/StatefulPartitionedCall/StatefulPartitionedCall/StatefulPartitionedCall/predict/MobilenetV3/expanded_conv_5/expand/Conv2D_weights", "StatefulPartitionedCall/sequential_6/keras_layer_4/StatefulPartitionedCall/StatefulPartitionedCall/StatefulPartitionedCall/predict/MobilenetV3/expanded_conv_5/expand/Conv2D_bn_offset"], "device": "/device:CPU:0", "attr": {"dilations": {"list": {"i": ["1", "1", "1", "1"]}}, "leakyrelu_alpha": {"f": 0.2}, "epsilon": {"f": 0.0}, "use_cudnn_on_gpu": {"b": true}, "num_host_args": {"i": "0"}, "TArgs": {"list": {"type": ["DT_FLOAT"]}}, "strides": {"list": {"i": ["1", "1", "1", "1"]}}, "num_args": {"i": "1"}, "fused_ops": {"list": {"s": ["Qmlhc0FkZA==", "UmVsdQ=="]}}, "T": {"type": "DT_FLOAT"}, "filter_format": {"s": "SFdJTw=="}, "padding": {"s": "U0FNRQ=="}, "data_format": {"s": "TkhXQw=="}, "explicit_paddings": {"list": {}}}}, {"name": "StatefulPartitionedCall/sequential_6/keras_layer_4/StatefulPartitionedCall/StatefulPartitionedCall/StatefulPartitionedCall/predict/MobilenetV3/expanded_conv_5/depthwise/depthwise", "op": "FusedDepthwiseConv2dNative", "input": ["StatefulPartitionedCall/sequential_6/keras_layer_4/StatefulPartitionedCall/StatefulPartitionedCall/StatefulPartitionedCall/predict/MobilenetV3/expanded_conv_5/expand/Relu", "StatefulPartitionedCall/sequential_6/keras_layer_4/StatefulPartitionedCall/StatefulPartitionedCall/StatefulPartitionedCall/predict/MobilenetV3/expanded_conv_5/depthwise/depthwise_weights", "StatefulPartitionedCall/sequential_6/keras_layer_4/StatefulPartitionedCall/StatefulPartitionedCall/StatefulPartitionedCall/predict/MobilenetV3/expanded_conv_5/depthwise/depthwise_bn_offset"], "attr": {"data_format": {"s": "TkhXQw=="}, "T": {"type": "DT_FLOAT"}, "dilations": {"list": {"i": ["1", "1", "1", "1"]}}, "explicit_paddings": {"list": {}}, "strides": {"list": {"i": ["1", "1", "1", "1"]}}, "padding": {"s": "U0FNRQ=="}, "num_args": {"i": "1"}, "fused_ops": {"list": {"s": ["Qmlhc0FkZA==", "UmVsdQ=="]}}}}, {"name": "StatefulPartitionedCall/sequential_6/keras_layer_4/StatefulPartitionedCall/StatefulPartitionedCall/StatefulPartitionedCall/predict/MobilenetV3/expanded_conv_5/squeeze_excite/Mean", "op": "Mean", "input": ["StatefulPartitionedCall/sequential_6/keras_layer_4/StatefulPartitionedCall/StatefulPartitionedCall/StatefulPartitionedCall/predict/MobilenetV3/expanded_conv_5/depthwise/depthwise", "StatefulPartitionedCall/sequential_6/keras_layer_4/StatefulPartitionedCall/StatefulPartitionedCall/StatefulPartitionedCall/predict/MobilenetV3/expanded_conv_5/squeeze_excite/Mean/reduction_indices"], "attr": {"Tidx": {"type": "DT_INT32"}, "keep_dims": {"b": true}, "T": {"type": "DT_FLOAT"}}}, {"name": "StatefulPartitionedCall/sequential_6/keras_layer_4/StatefulPartitionedCall/StatefulPartitionedCall/StatefulPartitionedCall/predict/MobilenetV3/expanded_conv_5/squeeze_excite/Conv/Relu", "op": "_FusedConv2D", "input": ["StatefulPartitionedCall/sequential_6/keras_layer_4/StatefulPartitionedCall/StatefulPartitionedCall/StatefulPartitionedCall/predict/MobilenetV3/expanded_conv_5/squeeze_excite/Mean", "Func/StatefulPartitionedCall/sequential_6/keras_layer_4/StatefulPartitionedCall/StatefulPartitionedCall/StatefulPartitionedCall/input/_904", "Func/StatefulPartitionedCall/sequential_6/keras_layer_4/StatefulPartitionedCall/StatefulPartitionedCall/StatefulPartitionedCall/input/_905"], "device": "/device:CPU:0", "attr": {"data_format": {"s": "TkhXQw=="}, "strides": {"list": {"i": ["1", "1", "1", "1"]}}, "leakyrelu_alpha": {"f": 0.2}, "padding": {"s": "U0FNRQ=="}, "T": {"type": "DT_FLOAT"}, "dilations": {"list": {"i": ["1", "1", "1", "1"]}}, "filter_format": {"s": "SFdJTw=="}, "fused_ops": {"list": {"s": ["Qmlhc0FkZA==", "UmVsdQ=="]}}, "epsilon": {"f": 0.0}, "num_host_args": {"i": "0"}, "num_args": {"i": "1"}, "explicit_paddings": {"list": {}}, "use_cudnn_on_gpu": {"b": true}, "TArgs": {"list": {"type": ["DT_FLOAT"]}}}}, {"name": "StatefulPartitionedCall/sequential_6/keras_layer_4/StatefulPartitionedCall/StatefulPartitionedCall/StatefulPartitionedCall/predict/MobilenetV3/expanded_conv_5/squeeze_excite/Conv_1/BiasAdd", "op": "_FusedConv2D", "input": ["StatefulPartitionedCall/sequential_6/keras_layer_4/StatefulPartitionedCall/StatefulPartitionedCall/StatefulPartitionedCall/predict/MobilenetV3/expanded_conv_5/squeeze_excite/Conv/Relu", "Func/StatefulPartitionedCall/sequential_6/keras_layer_4/StatefulPartitionedCall/StatefulPartitionedCall/StatefulPartitionedCall/input/_906", "Func/StatefulPartitionedCall/sequential_6/keras_layer_4/StatefulPartitionedCall/StatefulPartitionedCall/StatefulPartitionedCall/input/_907"], "device": "/device:CPU:0", "attr": {"leakyrelu_alpha": {"f": 0.2}, "TArgs": {"list": {"type": ["DT_FLOAT"]}}, "filter_format": {"s": "SFdJTw=="}, "num_host_args": {"i": "0"}, "epsilon": {"f": 0.0}, "padding": {"s": "U0FNRQ=="}, "data_format": {"s": "TkhXQw=="}, "strides": {"list": {"i": ["1", "1", "1", "1"]}}, "num_args": {"i": "1"}, "T": {"type": "DT_FLOAT"}, "dilations": {"list": {"i": ["1", "1", "1", "1"]}}, "use_cudnn_on_gpu": {"b": true}, "fused_ops": {"list": {"s": ["Qmlhc0FkZA=="]}}, "explicit_paddings": {"list": {}}}}, {"name": "StatefulPartitionedCall/sequential_6/keras_layer_4/StatefulPartitionedCall/StatefulPartitionedCall/StatefulPartitionedCall/predict/MobilenetV3/expanded_conv_5/squeeze_excite/Conv_1/add", "op": "AddV2", "input": ["StatefulPartitionedCall/sequential_6/keras_layer_4/StatefulPartitionedCall/StatefulPartitionedCall/StatefulPartitionedCall/predict/MobilenetV3/expanded_conv_5/squeeze_excite/Conv_1/BiasAdd", "StatefulPartitionedCall/sequential_6/keras_layer_4/StatefulPartitionedCall/StatefulPartitionedCall/StatefulPartitionedCall/predict/MobilenetV3/expanded_conv_5/squeeze_excite/Conv_1/add/y"], "attr": {"T": {"type": "DT_FLOAT"}}}, {"name": "StatefulPartitionedCall/sequential_6/keras_layer_4/StatefulPartitionedCall/StatefulPartitionedCall/StatefulPartitionedCall/predict/MobilenetV3/expanded_conv_5/squeeze_excite/Conv_1/Relu6", "op": "Relu6", "input": ["StatefulPartitionedCall/sequential_6/keras_layer_4/StatefulPartitionedCall/StatefulPartitionedCall/StatefulPartitionedCall/predict/MobilenetV3/expanded_conv_5/squeeze_excite/Conv_1/add"], "attr": {"T": {"type": "DT_FLOAT"}}}, {"name": "StatefulPartitionedCall/sequential_6/keras_layer_4/StatefulPartitionedCall/StatefulPartitionedCall/StatefulPartitionedCall/predict/MobilenetV3/expanded_conv_5/squeeze_excite/Conv_1/mul", "op": "Mul", "input": ["StatefulPartitionedCall/sequential_6/keras_layer_4/StatefulPartitionedCall/StatefulPartitionedCall/StatefulPartitionedCall/predict/MobilenetV3/expanded_conv_5/squeeze_excite/Conv_1/mul/y", "StatefulPartitionedCall/sequential_6/keras_layer_4/StatefulPartitionedCall/StatefulPartitionedCall/StatefulPartitionedCall/predict/MobilenetV3/expanded_conv_5/squeeze_excite/Conv_1/Relu6"], "attr": {"_grappler_ArithmeticOptimizer_MinimizeBroadcasts": {"b": true}, "T": {"type": "DT_FLOAT"}}}, {"name": "StatefulPartitionedCall/sequential_6/keras_layer_4/StatefulPartitionedCall/StatefulPartitionedCall/StatefulPartitionedCall/predict/MobilenetV3/expanded_conv_5/squeeze_excite/mul", "op": "Mul", "input": ["StatefulPartitionedCall/sequential_6/keras_layer_4/StatefulPartitionedCall/StatefulPartitionedCall/StatefulPartitionedCall/predict/MobilenetV3/expanded_conv_5/squeeze_excite/Conv_1/mul", "StatefulPartitionedCall/sequential_6/keras_layer_4/StatefulPartitionedCall/StatefulPartitionedCall/StatefulPartitionedCall/predict/MobilenetV3/expanded_conv_5/depthwise/depthwise"], "attr": {"T": {"type": "DT_FLOAT"}, "_grappler_ArithmeticOptimizer_MinimizeBroadcasts": {"b": true}}}, {"name": "StatefulPartitionedCall/sequential_6/keras_layer_4/StatefulPartitionedCall/StatefulPartitionedCall/StatefulPartitionedCall/predict/MobilenetV3/expanded_conv_5/project/BatchNorm/FusedBatchNormV3", "op": "_FusedConv2D", "input": ["StatefulPartitionedCall/sequential_6/keras_layer_4/StatefulPartitionedCall/StatefulPartitionedCall/StatefulPartitionedCall/predict/MobilenetV3/expanded_conv_5/squeeze_excite/mul", "StatefulPartitionedCall/sequential_6/keras_layer_4/StatefulPartitionedCall/StatefulPartitionedCall/StatefulPartitionedCall/predict/MobilenetV3/expanded_conv_5/project/Conv2D_weights", "StatefulPartitionedCall/sequential_6/keras_layer_4/StatefulPartitionedCall/StatefulPartitionedCall/StatefulPartitionedCall/predict/MobilenetV3/expanded_conv_5/project/Conv2D_bn_offset"], "device": "/device:CPU:0", "attr": {"padding": {"s": "U0FNRQ=="}, "fused_ops": {"list": {"s": ["Qmlhc0FkZA=="]}}, "dilations": {"list": {"i": ["1", "1", "1", "1"]}}, "num_args": {"i": "1"}, "epsilon": {"f": 0.0}, "data_format": {"s": "TkhXQw=="}, "T": {"type": "DT_FLOAT"}, "num_host_args": {"i": "0"}, "strides": {"list": {"i": ["1", "1", "1", "1"]}}, "leakyrelu_alpha": {"f": 0.2}, "filter_format": {"s": "SFdJTw=="}, "TArgs": {"list": {"type": ["DT_FLOAT"]}}, "explicit_paddings": {"list": {}}, "use_cudnn_on_gpu": {"b": true}}}, {"name": "StatefulPartitionedCall/sequential_6/keras_layer_4/StatefulPartitionedCall/StatefulPartitionedCall/StatefulPartitionedCall/predict/MobilenetV3/expanded_conv_5/add", "op": "AddV2", "input": ["StatefulPartitionedCall/sequential_6/keras_layer_4/StatefulPartitionedCall/StatefulPartitionedCall/StatefulPartitionedCall/predict/MobilenetV3/expanded_conv_5/project/BatchNorm/FusedBatchNormV3", "StatefulPartitionedCall/sequential_6/keras_layer_4/StatefulPartitionedCall/StatefulPartitionedCall/StatefulPartitionedCall/predict/MobilenetV3/expanded_conv_4/add"], "attr": {"T": {"type": "DT_FLOAT"}}}, {"name": "StatefulPartitionedCall/sequential_6/keras_layer_4/StatefulPartitionedCall/StatefulPartitionedCall/StatefulPartitionedCall/predict/MobilenetV3/expanded_conv_6/expand/BatchNorm/FusedBatchNormV3", "op": "_FusedConv2D", "input": ["StatefulPartitionedCall/sequential_6/keras_layer_4/StatefulPartitionedCall/StatefulPartitionedCall/StatefulPartitionedCall/predict/MobilenetV3/expanded_conv_5/add", "StatefulPartitionedCall/sequential_6/keras_layer_4/StatefulPartitionedCall/StatefulPartitionedCall/StatefulPartitionedCall/predict/MobilenetV3/expanded_conv_6/expand/Conv2D_weights", "StatefulPartitionedCall/sequential_6/keras_layer_4/StatefulPartitionedCall/StatefulPartitionedCall/StatefulPartitionedCall/predict/MobilenetV3/expanded_conv_6/expand/Conv2D_bn_offset"], "device": "/device:CPU:0", "attr": {"filter_format": {"s": "SFdJTw=="}, "data_format": {"s": "TkhXQw=="}, "T": {"type": "DT_FLOAT"}, "explicit_paddings": {"list": {}}, "fused_ops": {"list": {"s": ["Qmlhc0FkZA=="]}}, "use_cudnn_on_gpu": {"b": true}, "leakyrelu_alpha": {"f": 0.2}, "dilations": {"list": {"i": ["1", "1", "1", "1"]}}, "num_args": {"i": "1"}, "strides": {"list": {"i": ["1", "1", "1", "1"]}}, "TArgs": {"list": {"type": ["DT_FLOAT"]}}, "padding": {"s": "U0FNRQ=="}, "epsilon": {"f": 0.0}, "num_host_args": {"i": "0"}}}, {"name": "StatefulPartitionedCall/sequential_6/keras_layer_4/StatefulPartitionedCall/StatefulPartitionedCall/StatefulPartitionedCall/predict/MobilenetV3/expanded_conv_6/expand/hard_swish/mul", "op": "Mul", "input": ["StatefulPartitionedCall/sequential_6/keras_layer_4/StatefulPartitionedCall/StatefulPartitionedCall/StatefulPartitionedCall/predict/MobilenetV3/expanded_conv_6/expand/hard_swish/mul_1/y", "StatefulPartitionedCall/sequential_6/keras_layer_4/StatefulPartitionedCall/StatefulPartitionedCall/StatefulPartitionedCall/predict/MobilenetV3/expanded_conv_6/expand/BatchNorm/FusedBatchNormV3"], "attr": {"T": {"type": "DT_FLOAT"}, "_grappler_ArithmeticOptimizer_MinimizeBroadcasts": {"b": true}}}, {"name": "StatefulPartitionedCall/sequential_6/keras_layer_4/StatefulPartitionedCall/StatefulPartitionedCall/StatefulPartitionedCall/predict/MobilenetV3/expanded_conv_6/expand/hard_swish/add", "op": "AddV2", "input": ["StatefulPartitionedCall/sequential_6/keras_layer_4/StatefulPartitionedCall/StatefulPartitionedCall/StatefulPartitionedCall/predict/MobilenetV3/expanded_conv_6/expand/BatchNorm/FusedBatchNormV3", "StatefulPartitionedCall/sequential_6/keras_layer_4/StatefulPartitionedCall/StatefulPartitionedCall/StatefulPartitionedCall/predict/MobilenetV3/expanded_conv_6/expand/hard_swish/add/y"], "attr": {"T": {"type": "DT_FLOAT"}}}, {"name": "StatefulPartitionedCall/sequential_6/keras_layer_4/StatefulPartitionedCall/StatefulPartitionedCall/StatefulPartitionedCall/predict/MobilenetV3/expanded_conv_6/expand/hard_swish/Relu6", "op": "Relu6", "input": ["StatefulPartitionedCall/sequential_6/keras_layer_4/StatefulPartitionedCall/StatefulPartitionedCall/StatefulPartitionedCall/predict/MobilenetV3/expanded_conv_6/expand/hard_swish/add"], "attr": {"T": {"type": "DT_FLOAT"}}}, {"name": "StatefulPartitionedCall/sequential_6/keras_layer_4/StatefulPartitionedCall/StatefulPartitionedCall/StatefulPartitionedCall/predict/MobilenetV3/expanded_conv_6/expand/hard_swish/mul_1", "op": "Mul", "input": ["StatefulPartitionedCall/sequential_6/keras_layer_4/StatefulPartitionedCall/StatefulPartitionedCall/StatefulPartitionedCall/predict/MobilenetV3/expanded_conv_6/expand/hard_swish/mul", "StatefulPartitionedCall/sequential_6/keras_layer_4/StatefulPartitionedCall/StatefulPartitionedCall/StatefulPartitionedCall/predict/MobilenetV3/expanded_conv_6/expand/hard_swish/Relu6"], "attr": {"_grappler_ArithmeticOptimizer_MinimizeBroadcasts": {"b": true}, "T": {"type": "DT_FLOAT"}}}, {"name": "StatefulPartitionedCall/sequential_6/keras_layer_4/StatefulPartitionedCall/StatefulPartitionedCall/StatefulPartitionedCall/predict/MobilenetV3/expanded_conv_6/depthwise/depthwise", "op": "FusedDepthwiseConv2dNative", "input": ["StatefulPartitionedCall/sequential_6/keras_layer_4/StatefulPartitionedCall/StatefulPartitionedCall/StatefulPartitionedCall/predict/MobilenetV3/expanded_conv_6/expand/hard_swish/mul_1", "StatefulPartitionedCall/sequential_6/keras_layer_4/StatefulPartitionedCall/StatefulPartitionedCall/StatefulPartitionedCall/predict/MobilenetV3/expanded_conv_6/depthwise/depthwise_weights", "StatefulPartitionedCall/sequential_6/keras_layer_4/StatefulPartitionedCall/StatefulPartitionedCall/StatefulPartitionedCall/predict/MobilenetV3/expanded_conv_6/depthwise/depthwise_bn_offset"], "attr": {"T": {"type": "DT_FLOAT"}, "padding": {"s": "U0FNRQ=="}, "dilations": {"list": {"i": ["1", "1", "1", "1"]}}, "explicit_paddings": {"list": {}}, "strides": {"list": {"i": ["1", "2", "2", "1"]}}, "data_format": {"s": "TkhXQw=="}, "num_args": {"i": "1"}, "fused_ops": {"list": {"s": ["Qmlhc0FkZA=="]}}}}, {"name": "StatefulPartitionedCall/sequential_6/keras_layer_4/StatefulPartitionedCall/StatefulPartitionedCall/StatefulPartitionedCall/predict/MobilenetV3/expanded_conv_6/depthwise/hard_swish/mul", "op": "Mul", "input": ["StatefulPartitionedCall/sequential_6/keras_layer_4/StatefulPartitionedCall/StatefulPartitionedCall/StatefulPartitionedCall/predict/MobilenetV3/expanded_conv_6/depthwise/hard_swish/mul_1/y", "StatefulPartitionedCall/sequential_6/keras_layer_4/StatefulPartitionedCall/StatefulPartitionedCall/StatefulPartitionedCall/predict/MobilenetV3/expanded_conv_6/depthwise/depthwise"], "attr": {"T": {"type": "DT_FLOAT"}, "_grappler_ArithmeticOptimizer_MinimizeBroadcasts": {"b": true}}}, {"name": "StatefulPartitionedCall/sequential_6/keras_layer_4/StatefulPartitionedCall/StatefulPartitionedCall/StatefulPartitionedCall/predict/MobilenetV3/expanded_conv_6/depthwise/hard_swish/add", "op": "AddV2", "input": ["StatefulPartitionedCall/sequential_6/keras_layer_4/StatefulPartitionedCall/StatefulPartitionedCall/StatefulPartitionedCall/predict/MobilenetV3/expanded_conv_6/depthwise/depthwise", "StatefulPartitionedCall/sequential_6/keras_layer_4/StatefulPartitionedCall/StatefulPartitionedCall/StatefulPartitionedCall/predict/MobilenetV3/expanded_conv_6/depthwise/hard_swish/add/y"], "attr": {"T": {"type": "DT_FLOAT"}}}, {"name": "StatefulPartitionedCall/sequential_6/keras_layer_4/StatefulPartitionedCall/StatefulPartitionedCall/StatefulPartitionedCall/predict/MobilenetV3/expanded_conv_6/depthwise/hard_swish/Relu6", "op": "Relu6", "input": ["StatefulPartitionedCall/sequential_6/keras_layer_4/StatefulPartitionedCall/StatefulPartitionedCall/StatefulPartitionedCall/predict/MobilenetV3/expanded_conv_6/depthwise/hard_swish/add"], "attr": {"T": {"type": "DT_FLOAT"}}}, {"name": "StatefulPartitionedCall/sequential_6/keras_layer_4/StatefulPartitionedCall/StatefulPartitionedCall/StatefulPartitionedCall/predict/MobilenetV3/expanded_conv_6/depthwise/hard_swish/mul_1", "op": "Mul", "input": ["StatefulPartitionedCall/sequential_6/keras_layer_4/StatefulPartitionedCall/StatefulPartitionedCall/StatefulPartitionedCall/predict/MobilenetV3/expanded_conv_6/depthwise/hard_swish/mul", "StatefulPartitionedCall/sequential_6/keras_layer_4/StatefulPartitionedCall/StatefulPartitionedCall/StatefulPartitionedCall/predict/MobilenetV3/expanded_conv_6/depthwise/hard_swish/Relu6"], "attr": {"_grappler_ArithmeticOptimizer_MinimizeBroadcasts": {"b": true}, "T": {"type": "DT_FLOAT"}}}, {"name": "StatefulPartitionedCall/sequential_6/keras_layer_4/StatefulPartitionedCall/StatefulPartitionedCall/StatefulPartitionedCall/predict/MobilenetV3/expanded_conv_6/project/BatchNorm/FusedBatchNormV3", "op": "_FusedConv2D", "input": ["StatefulPartitionedCall/sequential_6/keras_layer_4/StatefulPartitionedCall/StatefulPartitionedCall/StatefulPartitionedCall/predict/MobilenetV3/expanded_conv_6/depthwise/hard_swish/mul_1", "StatefulPartitionedCall/sequential_6/keras_layer_4/StatefulPartitionedCall/StatefulPartitionedCall/StatefulPartitionedCall/predict/MobilenetV3/expanded_conv_6/project/Conv2D_weights", "StatefulPartitionedCall/sequential_6/keras_layer_4/StatefulPartitionedCall/StatefulPartitionedCall/StatefulPartitionedCall/predict/MobilenetV3/expanded_conv_6/project/Conv2D_bn_offset"], "device": "/device:CPU:0", "attr": {"use_cudnn_on_gpu": {"b": true}, "fused_ops": {"list": {"s": ["Qmlhc0FkZA=="]}}, "explicit_paddings": {"list": {}}, "leakyrelu_alpha": {"f": 0.2}, "dilations": {"list": {"i": ["1", "1", "1", "1"]}}, "T": {"type": "DT_FLOAT"}, "num_host_args": {"i": "0"}, "filter_format": {"s": "SFdJTw=="}, "epsilon": {"f": 0.0}, "strides": {"list": {"i": ["1", "1", "1", "1"]}}, "TArgs": {"list": {"type": ["DT_FLOAT"]}}, "num_args": {"i": "1"}, "padding": {"s": "U0FNRQ=="}, "data_format": {"s": "TkhXQw=="}}}, {"name": "StatefulPartitionedCall/sequential_6/keras_layer_4/StatefulPartitionedCall/StatefulPartitionedCall/StatefulPartitionedCall/predict/MobilenetV3/expanded_conv_7/expand/BatchNorm/FusedBatchNormV3", "op": "_FusedConv2D", "input": ["StatefulPartitionedCall/sequential_6/keras_layer_4/StatefulPartitionedCall/StatefulPartitionedCall/StatefulPartitionedCall/predict/MobilenetV3/expanded_conv_6/project/BatchNorm/FusedBatchNormV3", "StatefulPartitionedCall/sequential_6/keras_layer_4/StatefulPartitionedCall/StatefulPartitionedCall/StatefulPartitionedCall/predict/MobilenetV3/expanded_conv_7/expand/Conv2D_weights", "StatefulPartitionedCall/sequential_6/keras_layer_4/StatefulPartitionedCall/StatefulPartitionedCall/StatefulPartitionedCall/predict/MobilenetV3/expanded_conv_7/expand/Conv2D_bn_offset"], "device": "/device:CPU:0", "attr": {"TArgs": {"list": {"type": ["DT_FLOAT"]}}, "padding": {"s": "U0FNRQ=="}, "filter_format": {"s": "SFdJTw=="}, "num_args": {"i": "1"}, "use_cudnn_on_gpu": {"b": true}, "strides": {"list": {"i": ["1", "1", "1", "1"]}}, "dilations": {"list": {"i": ["1", "1", "1", "1"]}}, "epsilon": {"f": 0.0}, "data_format": {"s": "TkhXQw=="}, "num_host_args": {"i": "0"}, "explicit_paddings": {"list": {}}, "fused_ops": {"list": {"s": ["Qmlhc0FkZA=="]}}, "T": {"type": "DT_FLOAT"}, "leakyrelu_alpha": {"f": 0.2}}}, {"name": "StatefulPartitionedCall/sequential_6/keras_layer_4/StatefulPartitionedCall/StatefulPartitionedCall/StatefulPartitionedCall/predict/MobilenetV3/expanded_conv_7/expand/hard_swish/mul", "op": "Mul", "input": ["StatefulPartitionedCall/sequential_6/keras_layer_4/StatefulPartitionedCall/StatefulPartitionedCall/StatefulPartitionedCall/predict/MobilenetV3/expanded_conv_7/expand/hard_swish/mul_1/y", "StatefulPartitionedCall/sequential_6/keras_layer_4/StatefulPartitionedCall/StatefulPartitionedCall/StatefulPartitionedCall/predict/MobilenetV3/expanded_conv_7/expand/BatchNorm/FusedBatchNormV3"], "attr": {"T": {"type": "DT_FLOAT"}, "_grappler_ArithmeticOptimizer_MinimizeBroadcasts": {"b": true}}}, {"name": "StatefulPartitionedCall/sequential_6/keras_layer_4/StatefulPartitionedCall/StatefulPartitionedCall/StatefulPartitionedCall/predict/MobilenetV3/expanded_conv_7/expand/hard_swish/add", "op": "AddV2", "input": ["StatefulPartitionedCall/sequential_6/keras_layer_4/StatefulPartitionedCall/StatefulPartitionedCall/StatefulPartitionedCall/predict/MobilenetV3/expanded_conv_7/expand/BatchNorm/FusedBatchNormV3", "StatefulPartitionedCall/sequential_6/keras_layer_4/StatefulPartitionedCall/StatefulPartitionedCall/StatefulPartitionedCall/predict/MobilenetV3/expanded_conv_7/expand/hard_swish/add/y"], "attr": {"T": {"type": "DT_FLOAT"}}}, {"name": "StatefulPartitionedCall/sequential_6/keras_layer_4/StatefulPartitionedCall/StatefulPartitionedCall/StatefulPartitionedCall/predict/MobilenetV3/expanded_conv_7/expand/hard_swish/Relu6", "op": "Relu6", "input": ["StatefulPartitionedCall/sequential_6/keras_layer_4/StatefulPartitionedCall/StatefulPartitionedCall/StatefulPartitionedCall/predict/MobilenetV3/expanded_conv_7/expand/hard_swish/add"], "attr": {"T": {"type": "DT_FLOAT"}}}, {"name": "StatefulPartitionedCall/sequential_6/keras_layer_4/StatefulPartitionedCall/StatefulPartitionedCall/StatefulPartitionedCall/predict/MobilenetV3/expanded_conv_7/expand/hard_swish/mul_1", "op": "Mul", "input": ["StatefulPartitionedCall/sequential_6/keras_layer_4/StatefulPartitionedCall/StatefulPartitionedCall/StatefulPartitionedCall/predict/MobilenetV3/expanded_conv_7/expand/hard_swish/mul", "StatefulPartitionedCall/sequential_6/keras_layer_4/StatefulPartitionedCall/StatefulPartitionedCall/StatefulPartitionedCall/predict/MobilenetV3/expanded_conv_7/expand/hard_swish/Relu6"], "attr": {"_grappler_ArithmeticOptimizer_MinimizeBroadcasts": {"b": true}, "T": {"type": "DT_FLOAT"}}}, {"name": "StatefulPartitionedCall/sequential_6/keras_layer_4/StatefulPartitionedCall/StatefulPartitionedCall/StatefulPartitionedCall/predict/MobilenetV3/expanded_conv_7/depthwise/depthwise", "op": "FusedDepthwiseConv2dNative", "input": ["StatefulPartitionedCall/sequential_6/keras_layer_4/StatefulPartitionedCall/StatefulPartitionedCall/StatefulPartitionedCall/predict/MobilenetV3/expanded_conv_7/expand/hard_swish/mul_1", "StatefulPartitionedCall/sequential_6/keras_layer_4/StatefulPartitionedCall/StatefulPartitionedCall/StatefulPartitionedCall/predict/MobilenetV3/expanded_conv_7/depthwise/depthwise_weights", "StatefulPartitionedCall/sequential_6/keras_layer_4/StatefulPartitionedCall/StatefulPartitionedCall/StatefulPartitionedCall/predict/MobilenetV3/expanded_conv_7/depthwise/depthwise_bn_offset"], "attr": {"padding": {"s": "U0FNRQ=="}, "explicit_paddings": {"list": {}}, "strides": {"list": {"i": ["1", "1", "1", "1"]}}, "T": {"type": "DT_FLOAT"}, "dilations": {"list": {"i": ["1", "1", "1", "1"]}}, "data_format": {"s": "TkhXQw=="}, "num_args": {"i": "1"}, "fused_ops": {"list": {"s": ["Qmlhc0FkZA=="]}}}}, {"name": "StatefulPartitionedCall/sequential_6/keras_layer_4/StatefulPartitionedCall/StatefulPartitionedCall/StatefulPartitionedCall/predict/MobilenetV3/expanded_conv_7/depthwise/hard_swish/mul", "op": "Mul", "input": ["StatefulPartitionedCall/sequential_6/keras_layer_4/StatefulPartitionedCall/StatefulPartitionedCall/StatefulPartitionedCall/predict/MobilenetV3/expanded_conv_7/depthwise/hard_swish/mul_1/y", "StatefulPartitionedCall/sequential_6/keras_layer_4/StatefulPartitionedCall/StatefulPartitionedCall/StatefulPartitionedCall/predict/MobilenetV3/expanded_conv_7/depthwise/depthwise"], "attr": {"T": {"type": "DT_FLOAT"}, "_grappler_ArithmeticOptimizer_MinimizeBroadcasts": {"b": true}}}, {"name": "StatefulPartitionedCall/sequential_6/keras_layer_4/StatefulPartitionedCall/StatefulPartitionedCall/StatefulPartitionedCall/predict/MobilenetV3/expanded_conv_7/depthwise/hard_swish/add", "op": "AddV2", "input": ["StatefulPartitionedCall/sequential_6/keras_layer_4/StatefulPartitionedCall/StatefulPartitionedCall/StatefulPartitionedCall/predict/MobilenetV3/expanded_conv_7/depthwise/depthwise", "StatefulPartitionedCall/sequential_6/keras_layer_4/StatefulPartitionedCall/StatefulPartitionedCall/StatefulPartitionedCall/predict/MobilenetV3/expanded_conv_7/depthwise/hard_swish/add/y"], "attr": {"T": {"type": "DT_FLOAT"}}}, {"name": "StatefulPartitionedCall/sequential_6/keras_layer_4/StatefulPartitionedCall/StatefulPartitionedCall/StatefulPartitionedCall/predict/MobilenetV3/expanded_conv_7/depthwise/hard_swish/Relu6", "op": "Relu6", "input": ["StatefulPartitionedCall/sequential_6/keras_layer_4/StatefulPartitionedCall/StatefulPartitionedCall/StatefulPartitionedCall/predict/MobilenetV3/expanded_conv_7/depthwise/hard_swish/add"], "attr": {"T": {"type": "DT_FLOAT"}}}, {"name": "StatefulPartitionedCall/sequential_6/keras_layer_4/StatefulPartitionedCall/StatefulPartitionedCall/StatefulPartitionedCall/predict/MobilenetV3/expanded_conv_7/depthwise/hard_swish/mul_1", "op": "Mul", "input": ["StatefulPartitionedCall/sequential_6/keras_layer_4/StatefulPartitionedCall/StatefulPartitionedCall/StatefulPartitionedCall/predict/MobilenetV3/expanded_conv_7/depthwise/hard_swish/mul", "StatefulPartitionedCall/sequential_6/keras_layer_4/StatefulPartitionedCall/StatefulPartitionedCall/StatefulPartitionedCall/predict/MobilenetV3/expanded_conv_7/depthwise/hard_swish/Relu6"], "attr": {"T": {"type": "DT_FLOAT"}, "_grappler_ArithmeticOptimizer_MinimizeBroadcasts": {"b": true}}}, {"name": "StatefulPartitionedCall/sequential_6/keras_layer_4/StatefulPartitionedCall/StatefulPartitionedCall/StatefulPartitionedCall/predict/MobilenetV3/expanded_conv_7/project/BatchNorm/FusedBatchNormV3", "op": "_FusedConv2D", "input": ["StatefulPartitionedCall/sequential_6/keras_layer_4/StatefulPartitionedCall/StatefulPartitionedCall/StatefulPartitionedCall/predict/MobilenetV3/expanded_conv_7/depthwise/hard_swish/mul_1", "StatefulPartitionedCall/sequential_6/keras_layer_4/StatefulPartitionedCall/StatefulPartitionedCall/StatefulPartitionedCall/predict/MobilenetV3/expanded_conv_7/project/Conv2D_weights", "StatefulPartitionedCall/sequential_6/keras_layer_4/StatefulPartitionedCall/StatefulPartitionedCall/StatefulPartitionedCall/predict/MobilenetV3/expanded_conv_7/project/Conv2D_bn_offset"], "device": "/device:CPU:0", "attr": {"data_format": {"s": "TkhXQw=="}, "TArgs": {"list": {"type": ["DT_FLOAT"]}}, "num_host_args": {"i": "0"}, "T": {"type": "DT_FLOAT"}, "explicit_paddings": {"list": {}}, "fused_ops": {"list": {"s": ["Qmlhc0FkZA=="]}}, "leakyrelu_alpha": {"f": 0.2}, "num_args": {"i": "1"}, "epsilon": {"f": 0.0}, "dilations": {"list": {"i": ["1", "1", "1", "1"]}}, "strides": {"list": {"i": ["1", "1", "1", "1"]}}, "filter_format": {"s": "SFdJTw=="}, "padding": {"s": "U0FNRQ=="}, "use_cudnn_on_gpu": {"b": true}}}, {"name": "StatefulPartitionedCall/sequential_6/keras_layer_4/StatefulPartitionedCall/StatefulPartitionedCall/StatefulPartitionedCall/predict/MobilenetV3/expanded_conv_7/add", "op": "AddV2", "input": ["StatefulPartitionedCall/sequential_6/keras_layer_4/StatefulPartitionedCall/StatefulPartitionedCall/StatefulPartitionedCall/predict/MobilenetV3/expanded_conv_7/project/BatchNorm/FusedBatchNormV3", "StatefulPartitionedCall/sequential_6/keras_layer_4/StatefulPartitionedCall/StatefulPartitionedCall/StatefulPartitionedCall/predict/MobilenetV3/expanded_conv_6/project/BatchNorm/FusedBatchNormV3"], "attr": {"T": {"type": "DT_FLOAT"}}}, {"name": "StatefulPartitionedCall/sequential_6/keras_layer_4/StatefulPartitionedCall/StatefulPartitionedCall/StatefulPartitionedCall/predict/MobilenetV3/expanded_conv_8/expand/BatchNorm/FusedBatchNormV3", "op": "_FusedConv2D", "input": ["StatefulPartitionedCall/sequential_6/keras_layer_4/StatefulPartitionedCall/StatefulPartitionedCall/StatefulPartitionedCall/predict/MobilenetV3/expanded_conv_7/add", "StatefulPartitionedCall/sequential_6/keras_layer_4/StatefulPartitionedCall/StatefulPartitionedCall/StatefulPartitionedCall/predict/MobilenetV3/expanded_conv_8/expand/Conv2D_weights", "StatefulPartitionedCall/sequential_6/keras_layer_4/StatefulPartitionedCall/StatefulPartitionedCall/StatefulPartitionedCall/predict/MobilenetV3/expanded_conv_8/expand/Conv2D_bn_offset"], "device": "/device:CPU:0", "attr": {"fused_ops": {"list": {"s": ["Qmlhc0FkZA=="]}}, "num_host_args": {"i": "0"}, "filter_format": {"s": "SFdJTw=="}, "T": {"type": "DT_FLOAT"}, "use_cudnn_on_gpu": {"b": true}, "explicit_paddings": {"list": {}}, "num_args": {"i": "1"}, "leakyrelu_alpha": {"f": 0.2}, "epsilon": {"f": 0.0}, "dilations": {"list": {"i": ["1", "1", "1", "1"]}}, "data_format": {"s": "TkhXQw=="}, "strides": {"list": {"i": ["1", "1", "1", "1"]}}, "padding": {"s": "U0FNRQ=="}, "TArgs": {"list": {"type": ["DT_FLOAT"]}}}}, {"name": "StatefulPartitionedCall/sequential_6/keras_layer_4/StatefulPartitionedCall/StatefulPartitionedCall/StatefulPartitionedCall/predict/MobilenetV3/expanded_conv_8/expand/hard_swish/mul", "op": "Mul", "input": ["StatefulPartitionedCall/sequential_6/keras_layer_4/StatefulPartitionedCall/StatefulPartitionedCall/StatefulPartitionedCall/predict/MobilenetV3/expanded_conv_8/expand/hard_swish/mul_1/y", "StatefulPartitionedCall/sequential_6/keras_layer_4/StatefulPartitionedCall/StatefulPartitionedCall/StatefulPartitionedCall/predict/MobilenetV3/expanded_conv_8/expand/BatchNorm/FusedBatchNormV3"], "attr": {"_grappler_ArithmeticOptimizer_MinimizeBroadcasts": {"b": true}, "T": {"type": "DT_FLOAT"}}}, {"name": "StatefulPartitionedCall/sequential_6/keras_layer_4/StatefulPartitionedCall/StatefulPartitionedCall/StatefulPartitionedCall/predict/MobilenetV3/expanded_conv_8/expand/hard_swish/add", "op": "AddV2", "input": ["StatefulPartitionedCall/sequential_6/keras_layer_4/StatefulPartitionedCall/StatefulPartitionedCall/StatefulPartitionedCall/predict/MobilenetV3/expanded_conv_8/expand/BatchNorm/FusedBatchNormV3", "StatefulPartitionedCall/sequential_6/keras_layer_4/StatefulPartitionedCall/StatefulPartitionedCall/StatefulPartitionedCall/predict/MobilenetV3/expanded_conv_8/expand/hard_swish/add/y"], "attr": {"T": {"type": "DT_FLOAT"}}}, {"name": "StatefulPartitionedCall/sequential_6/keras_layer_4/StatefulPartitionedCall/StatefulPartitionedCall/StatefulPartitionedCall/predict/MobilenetV3/expanded_conv_8/expand/hard_swish/Relu6", "op": "Relu6", "input": ["StatefulPartitionedCall/sequential_6/keras_layer_4/StatefulPartitionedCall/StatefulPartitionedCall/StatefulPartitionedCall/predict/MobilenetV3/expanded_conv_8/expand/hard_swish/add"], "attr": {"T": {"type": "DT_FLOAT"}}}, {"name": "StatefulPartitionedCall/sequential_6/keras_layer_4/StatefulPartitionedCall/StatefulPartitionedCall/StatefulPartitionedCall/predict/MobilenetV3/expanded_conv_8/expand/hard_swish/mul_1", "op": "Mul", "input": ["StatefulPartitionedCall/sequential_6/keras_layer_4/StatefulPartitionedCall/StatefulPartitionedCall/StatefulPartitionedCall/predict/MobilenetV3/expanded_conv_8/expand/hard_swish/mul", "StatefulPartitionedCall/sequential_6/keras_layer_4/StatefulPartitionedCall/StatefulPartitionedCall/StatefulPartitionedCall/predict/MobilenetV3/expanded_conv_8/expand/hard_swish/Relu6"], "attr": {"_grappler_ArithmeticOptimizer_MinimizeBroadcasts": {"b": true}, "T": {"type": "DT_FLOAT"}}}, {"name": "StatefulPartitionedCall/sequential_6/keras_layer_4/StatefulPartitionedCall/StatefulPartitionedCall/StatefulPartitionedCall/predict/MobilenetV3/expanded_conv_8/depthwise/depthwise", "op": "FusedDepthwiseConv2dNative", "input": ["StatefulPartitionedCall/sequential_6/keras_layer_4/StatefulPartitionedCall/StatefulPartitionedCall/StatefulPartitionedCall/predict/MobilenetV3/expanded_conv_8/expand/hard_swish/mul_1", "StatefulPartitionedCall/sequential_6/keras_layer_4/StatefulPartitionedCall/StatefulPartitionedCall/StatefulPartitionedCall/predict/MobilenetV3/expanded_conv_8/depthwise/depthwise_weights", "StatefulPartitionedCall/sequential_6/keras_layer_4/StatefulPartitionedCall/StatefulPartitionedCall/StatefulPartitionedCall/predict/MobilenetV3/expanded_conv_8/depthwise/depthwise_bn_offset"], "attr": {"strides": {"list": {"i": ["1", "1", "1", "1"]}}, "explicit_paddings": {"list": {}}, "dilations": {"list": {"i": ["1", "1", "1", "1"]}}, "data_format": {"s": "TkhXQw=="}, "T": {"type": "DT_FLOAT"}, "padding": {"s": "U0FNRQ=="}, "num_args": {"i": "1"}, "fused_ops": {"list": {"s": ["Qmlhc0FkZA=="]}}}}, {"name": "StatefulPartitionedCall/sequential_6/keras_layer_4/StatefulPartitionedCall/StatefulPartitionedCall/StatefulPartitionedCall/predict/MobilenetV3/expanded_conv_8/depthwise/hard_swish/mul", "op": "Mul", "input": ["StatefulPartitionedCall/sequential_6/keras_layer_4/StatefulPartitionedCall/StatefulPartitionedCall/StatefulPartitionedCall/predict/MobilenetV3/expanded_conv_8/depthwise/hard_swish/mul_1/y", "StatefulPartitionedCall/sequential_6/keras_layer_4/StatefulPartitionedCall/StatefulPartitionedCall/StatefulPartitionedCall/predict/MobilenetV3/expanded_conv_8/depthwise/depthwise"], "attr": {"T": {"type": "DT_FLOAT"}, "_grappler_ArithmeticOptimizer_MinimizeBroadcasts": {"b": true}}}, {"name": "StatefulPartitionedCall/sequential_6/keras_layer_4/StatefulPartitionedCall/StatefulPartitionedCall/StatefulPartitionedCall/predict/MobilenetV3/expanded_conv_8/depthwise/hard_swish/add", "op": "AddV2", "input": ["StatefulPartitionedCall/sequential_6/keras_layer_4/StatefulPartitionedCall/StatefulPartitionedCall/StatefulPartitionedCall/predict/MobilenetV3/expanded_conv_8/depthwise/depthwise", "StatefulPartitionedCall/sequential_6/keras_layer_4/StatefulPartitionedCall/StatefulPartitionedCall/StatefulPartitionedCall/predict/MobilenetV3/expanded_conv_8/depthwise/hard_swish/add/y"], "attr": {"T": {"type": "DT_FLOAT"}}}, {"name": "StatefulPartitionedCall/sequential_6/keras_layer_4/StatefulPartitionedCall/StatefulPartitionedCall/StatefulPartitionedCall/predict/MobilenetV3/expanded_conv_8/depthwise/hard_swish/Relu6", "op": "Relu6", "input": ["StatefulPartitionedCall/sequential_6/keras_layer_4/StatefulPartitionedCall/StatefulPartitionedCall/StatefulPartitionedCall/predict/MobilenetV3/expanded_conv_8/depthwise/hard_swish/add"], "attr": {"T": {"type": "DT_FLOAT"}}}, {"name": "StatefulPartitionedCall/sequential_6/keras_layer_4/StatefulPartitionedCall/StatefulPartitionedCall/StatefulPartitionedCall/predict/MobilenetV3/expanded_conv_8/depthwise/hard_swish/mul_1", "op": "Mul", "input": ["StatefulPartitionedCall/sequential_6/keras_layer_4/StatefulPartitionedCall/StatefulPartitionedCall/StatefulPartitionedCall/predict/MobilenetV3/expanded_conv_8/depthwise/hard_swish/mul", "StatefulPartitionedCall/sequential_6/keras_layer_4/StatefulPartitionedCall/StatefulPartitionedCall/StatefulPartitionedCall/predict/MobilenetV3/expanded_conv_8/depthwise/hard_swish/Relu6"], "attr": {"_grappler_ArithmeticOptimizer_MinimizeBroadcasts": {"b": true}, "T": {"type": "DT_FLOAT"}}}, {"name": "StatefulPartitionedCall/sequential_6/keras_layer_4/StatefulPartitionedCall/StatefulPartitionedCall/StatefulPartitionedCall/predict/MobilenetV3/expanded_conv_8/project/BatchNorm/FusedBatchNormV3", "op": "_FusedConv2D", "input": ["StatefulPartitionedCall/sequential_6/keras_layer_4/StatefulPartitionedCall/StatefulPartitionedCall/StatefulPartitionedCall/predict/MobilenetV3/expanded_conv_8/depthwise/hard_swish/mul_1", "StatefulPartitionedCall/sequential_6/keras_layer_4/StatefulPartitionedCall/StatefulPartitionedCall/StatefulPartitionedCall/predict/MobilenetV3/expanded_conv_8/project/Conv2D_weights", "StatefulPartitionedCall/sequential_6/keras_layer_4/StatefulPartitionedCall/StatefulPartitionedCall/StatefulPartitionedCall/predict/MobilenetV3/expanded_conv_8/project/Conv2D_bn_offset"], "device": "/device:CPU:0", "attr": {"T": {"type": "DT_FLOAT"}, "strides": {"list": {"i": ["1", "1", "1", "1"]}}, "num_args": {"i": "1"}, "padding": {"s": "U0FNRQ=="}, "dilations": {"list": {"i": ["1", "1", "1", "1"]}}, "TArgs": {"list": {"type": ["DT_FLOAT"]}}, "num_host_args": {"i": "0"}, "use_cudnn_on_gpu": {"b": true}, "filter_format": {"s": "SFdJTw=="}, "fused_ops": {"list": {"s": ["Qmlhc0FkZA=="]}}, "epsilon": {"f": 0.0}, "explicit_paddings": {"list": {}}, "leakyrelu_alpha": {"f": 0.2}, "data_format": {"s": "TkhXQw=="}}}, {"name": "StatefulPartitionedCall/sequential_6/keras_layer_4/StatefulPartitionedCall/StatefulPartitionedCall/StatefulPartitionedCall/predict/MobilenetV3/expanded_conv_8/add", "op": "AddV2", "input": ["StatefulPartitionedCall/sequential_6/keras_layer_4/StatefulPartitionedCall/StatefulPartitionedCall/StatefulPartitionedCall/predict/MobilenetV3/expanded_conv_8/project/BatchNorm/FusedBatchNormV3", "StatefulPartitionedCall/sequential_6/keras_layer_4/StatefulPartitionedCall/StatefulPartitionedCall/StatefulPartitionedCall/predict/MobilenetV3/expanded_conv_7/add"], "attr": {"T": {"type": "DT_FLOAT"}}}, {"name": "StatefulPartitionedCall/sequential_6/keras_layer_4/StatefulPartitionedCall/StatefulPartitionedCall/StatefulPartitionedCall/predict/MobilenetV3/expanded_conv_9/expand/BatchNorm/FusedBatchNormV3", "op": "_FusedConv2D", "input": ["StatefulPartitionedCall/sequential_6/keras_layer_4/StatefulPartitionedCall/StatefulPartitionedCall/StatefulPartitionedCall/predict/MobilenetV3/expanded_conv_8/add", "StatefulPartitionedCall/sequential_6/keras_layer_4/StatefulPartitionedCall/StatefulPartitionedCall/StatefulPartitionedCall/predict/MobilenetV3/expanded_conv_9/expand/Conv2D_weights", "StatefulPartitionedCall/sequential_6/keras_layer_4/StatefulPartitionedCall/StatefulPartitionedCall/StatefulPartitionedCall/predict/MobilenetV3/expanded_conv_9/expand/Conv2D_bn_offset"], "device": "/device:CPU:0", "attr": {"strides": {"list": {"i": ["1", "1", "1", "1"]}}, "T": {"type": "DT_FLOAT"}, "num_args": {"i": "1"}, "padding": {"s": "U0FNRQ=="}, "TArgs": {"list": {"type": ["DT_FLOAT"]}}, "dilations": {"list": {"i": ["1", "1", "1", "1"]}}, "filter_format": {"s": "SFdJTw=="}, "num_host_args": {"i": "0"}, "use_cudnn_on_gpu": {"b": true}, "fused_ops": {"list": {"s": ["Qmlhc0FkZA=="]}}, "epsilon": {"f": 0.0}, "explicit_paddings": {"list": {}}, "leakyrelu_alpha": {"f": 0.2}, "data_format": {"s": "TkhXQw=="}}}, {"name": "StatefulPartitionedCall/sequential_6/keras_layer_4/StatefulPartitionedCall/StatefulPartitionedCall/StatefulPartitionedCall/predict/MobilenetV3/expanded_conv_9/expand/hard_swish/mul", "op": "Mul", "input": ["StatefulPartitionedCall/sequential_6/keras_layer_4/StatefulPartitionedCall/StatefulPartitionedCall/StatefulPartitionedCall/predict/MobilenetV3/expanded_conv_9/expand/hard_swish/mul_1/y", "StatefulPartitionedCall/sequential_6/keras_layer_4/StatefulPartitionedCall/StatefulPartitionedCall/StatefulPartitionedCall/predict/MobilenetV3/expanded_conv_9/expand/BatchNorm/FusedBatchNormV3"], "attr": {"T": {"type": "DT_FLOAT"}, "_grappler_ArithmeticOptimizer_MinimizeBroadcasts": {"b": true}}}, {"name": "StatefulPartitionedCall/sequential_6/keras_layer_4/StatefulPartitionedCall/StatefulPartitionedCall/StatefulPartitionedCall/predict/MobilenetV3/expanded_conv_9/expand/hard_swish/add", "op": "AddV2", "input": ["StatefulPartitionedCall/sequential_6/keras_layer_4/StatefulPartitionedCall/StatefulPartitionedCall/StatefulPartitionedCall/predict/MobilenetV3/expanded_conv_9/expand/BatchNorm/FusedBatchNormV3", "StatefulPartitionedCall/sequential_6/keras_layer_4/StatefulPartitionedCall/StatefulPartitionedCall/StatefulPartitionedCall/predict/MobilenetV3/expanded_conv_9/expand/hard_swish/add/y"], "attr": {"T": {"type": "DT_FLOAT"}}}, {"name": "StatefulPartitionedCall/sequential_6/keras_layer_4/StatefulPartitionedCall/StatefulPartitionedCall/StatefulPartitionedCall/predict/MobilenetV3/expanded_conv_9/expand/hard_swish/Relu6", "op": "Relu6", "input": ["StatefulPartitionedCall/sequential_6/keras_layer_4/StatefulPartitionedCall/StatefulPartitionedCall/StatefulPartitionedCall/predict/MobilenetV3/expanded_conv_9/expand/hard_swish/add"], "attr": {"T": {"type": "DT_FLOAT"}}}, {"name": "StatefulPartitionedCall/sequential_6/keras_layer_4/StatefulPartitionedCall/StatefulPartitionedCall/StatefulPartitionedCall/predict/MobilenetV3/expanded_conv_9/expand/hard_swish/mul_1", "op": "Mul", "input": ["StatefulPartitionedCall/sequential_6/keras_layer_4/StatefulPartitionedCall/StatefulPartitionedCall/StatefulPartitionedCall/predict/MobilenetV3/expanded_conv_9/expand/hard_swish/mul", "StatefulPartitionedCall/sequential_6/keras_layer_4/StatefulPartitionedCall/StatefulPartitionedCall/StatefulPartitionedCall/predict/MobilenetV3/expanded_conv_9/expand/hard_swish/Relu6"], "attr": {"T": {"type": "DT_FLOAT"}, "_grappler_ArithmeticOptimizer_MinimizeBroadcasts": {"b": true}}}, {"name": "StatefulPartitionedCall/sequential_6/keras_layer_4/StatefulPartitionedCall/StatefulPartitionedCall/StatefulPartitionedCall/predict/MobilenetV3/expanded_conv_9/depthwise/depthwise", "op": "FusedDepthwiseConv2dNative", "input": ["StatefulPartitionedCall/sequential_6/keras_layer_4/StatefulPartitionedCall/StatefulPartitionedCall/StatefulPartitionedCall/predict/MobilenetV3/expanded_conv_9/expand/hard_swish/mul_1", "StatefulPartitionedCall/sequential_6/keras_layer_4/StatefulPartitionedCall/StatefulPartitionedCall/StatefulPartitionedCall/predict/MobilenetV3/expanded_conv_9/depthwise/depthwise_weights", "StatefulPartitionedCall/sequential_6/keras_layer_4/StatefulPartitionedCall/StatefulPartitionedCall/StatefulPartitionedCall/predict/MobilenetV3/expanded_conv_9/depthwise/depthwise_bn_offset"], "attr": {"T": {"type": "DT_FLOAT"}, "dilations": {"list": {"i": ["1", "1", "1", "1"]}}, "explicit_paddings": {"list": {}}, "padding": {"s": "U0FNRQ=="}, "data_format": {"s": "TkhXQw=="}, "strides": {"list": {"i": ["1", "1", "1", "1"]}}, "num_args": {"i": "1"}, "fused_ops": {"list": {"s": ["Qmlhc0FkZA=="]}}}}, {"name": "StatefulPartitionedCall/sequential_6/keras_layer_4/StatefulPartitionedCall/StatefulPartitionedCall/StatefulPartitionedCall/predict/MobilenetV3/expanded_conv_9/depthwise/hard_swish/mul", "op": "Mul", "input": ["StatefulPartitionedCall/sequential_6/keras_layer_4/StatefulPartitionedCall/StatefulPartitionedCall/StatefulPartitionedCall/predict/MobilenetV3/expanded_conv_9/depthwise/hard_swish/mul_1/y", "StatefulPartitionedCall/sequential_6/keras_layer_4/StatefulPartitionedCall/StatefulPartitionedCall/StatefulPartitionedCall/predict/MobilenetV3/expanded_conv_9/depthwise/depthwise"], "attr": {"_grappler_ArithmeticOptimizer_MinimizeBroadcasts": {"b": true}, "T": {"type": "DT_FLOAT"}}}, {"name": "StatefulPartitionedCall/sequential_6/keras_layer_4/StatefulPartitionedCall/StatefulPartitionedCall/StatefulPartitionedCall/predict/MobilenetV3/expanded_conv_9/depthwise/hard_swish/add", "op": "AddV2", "input": ["StatefulPartitionedCall/sequential_6/keras_layer_4/StatefulPartitionedCall/StatefulPartitionedCall/StatefulPartitionedCall/predict/MobilenetV3/expanded_conv_9/depthwise/depthwise", "StatefulPartitionedCall/sequential_6/keras_layer_4/StatefulPartitionedCall/StatefulPartitionedCall/StatefulPartitionedCall/predict/MobilenetV3/expanded_conv_9/depthwise/hard_swish/add/y"], "attr": {"T": {"type": "DT_FLOAT"}}}, {"name": "StatefulPartitionedCall/sequential_6/keras_layer_4/StatefulPartitionedCall/StatefulPartitionedCall/StatefulPartitionedCall/predict/MobilenetV3/expanded_conv_9/depthwise/hard_swish/Relu6", "op": "Relu6", "input": ["StatefulPartitionedCall/sequential_6/keras_layer_4/StatefulPartitionedCall/StatefulParti…
ding": {"s": "U0FNRQ=="}, "strides": {"list": {"i": ["1", "1", "1", "1"]}}, "T": {"type": "DT_FLOAT"}, "epsilon": {"f": 0.0}, "dilations": {"list": {"i": ["1", "1", "1", "1"]}}, "use_cudnn_on_gpu": {"b": true}, "data_format": {"s": "TkhXQw=="}, "leakyrelu_alpha": {"f": 0.2}, "fused_ops": {"list": {"s": ["Qmlhc0FkZA=="]}}, "filter_format": {"s": "SFdJTw=="}, "num_args": {"i": "1"}, "num_host_args": {"i": "0"}, "explicit_paddings": {"list": {}}}}, {"name": "StatefulPartitionedCall/sequential_6/keras_layer_4/StatefulPartitionedCall/StatefulPartitionedCall/StatefulPartitionedCall/predict/MobilenetV3/Conv_2/hard_swish/mul", "op": "Mul", "input": ["StatefulPartitionedCall/sequential_6/keras_layer_4/StatefulPartitionedCall/StatefulPartitionedCall/StatefulPartitionedCall/predict/MobilenetV3/Conv_2/hard_swish/mul_1/y", "StatefulPartitionedCall/sequential_6/keras_layer_4/StatefulPartitionedCall/StatefulPartitionedCall/StatefulPartitionedCall/predict/MobilenetV3/Conv_2/BiasAdd"], "attr": {"_grappler_ArithmeticOptimizer_MinimizeBroadcasts": {"b": true}, "T": {"type": "DT_FLOAT"}}}, {"name": "StatefulPartitionedCall/sequential_6/keras_layer_4/StatefulPartitionedCall/StatefulPartitionedCall/StatefulPartitionedCall/predict/MobilenetV3/Conv_2/hard_swish/add", "op": "AddV2", "input": ["StatefulPartitionedCall/sequential_6/keras_layer_4/StatefulPartitionedCall/StatefulPartitionedCall/StatefulPartitionedCall/predict/MobilenetV3/Conv_2/BiasAdd", "StatefulPartitionedCall/sequential_6/keras_layer_4/StatefulPartitionedCall/StatefulPartitionedCall/StatefulPartitionedCall/predict/MobilenetV3/Conv_2/hard_swish/add/y"], "attr": {"T": {"type": "DT_FLOAT"}}}, {"name": "StatefulPartitionedCall/sequential_6/keras_layer_4/StatefulPartitionedCall/StatefulPartitionedCall/StatefulPartitionedCall/predict/MobilenetV3/Conv_2/hard_swish/Relu6", "op": "Relu6", "input": ["StatefulPartitionedCall/sequential_6/keras_layer_4/StatefulPartitionedCall/StatefulPartitionedCall/StatefulPartitionedCall/predict/MobilenetV3/Conv_2/hard_swish/add"], "attr": {"T": {"type": "DT_FLOAT"}}}, {"name": "StatefulPartitionedCall/sequential_6/keras_layer_4/StatefulPartitionedCall/StatefulPartitionedCall/StatefulPartitionedCall/predict/MobilenetV3/Conv_2/hard_swish/mul_1", "op": "Mul", "input": ["StatefulPartitionedCall/sequential_6/keras_layer_4/StatefulPartitionedCall/StatefulPartitionedCall/StatefulPartitionedCall/predict/MobilenetV3/Conv_2/hard_swish/mul", "StatefulPartitionedCall/sequential_6/keras_layer_4/StatefulPartitionedCall/StatefulPartitionedCall/StatefulPartitionedCall/predict/MobilenetV3/Conv_2/hard_swish/Relu6"], "attr": {"T": {"type": "DT_FLOAT"}, "_grappler_ArithmeticOptimizer_MinimizeBroadcasts": {"b": true}}}, {"name": "StatefulPartitionedCall/sequential_6/keras_layer_4/StatefulPartitionedCall/StatefulPartitionedCall/StatefulPartitionedCall/predict/MobilenetV3/Logits/AvgPool", "op": "AvgPool", "input": ["StatefulPartitionedCall/sequential_6/keras_layer_4/StatefulPartitionedCall/StatefulPartitionedCall/StatefulPartitionedCall/predict/MobilenetV3/Conv_2/hard_swish/mul_1"], "attr": {"padding": {"s": "VkFMSUQ="}, "strides": {"list": {"i": ["1", "1", "1", "1"]}}, "ksize": {"list": {"i": ["1", "1", "1", "1"]}}, "T": {"type": "DT_FLOAT"}, "data_format": {"s": "TkhXQw=="}}}, {"name": "StatefulPartitionedCall/sequential_6/keras_layer_4/StatefulPartitionedCall/StatefulPartitionedCall/StatefulPartitionedCall/predict/feature_vector/SpatialSqueeze", "op": "Squeeze", "input": ["StatefulPartitionedCall/sequential_6/keras_layer_4/StatefulPartitionedCall/StatefulPartitionedCall/StatefulPartitionedCall/predict/MobilenetV3/Logits/AvgPool"], "attr": {"squeeze_dims": {"list": {"i": ["1", "2"]}}, "T": {"type": "DT_FLOAT"}}}, {"name": "StatefulPartitionedCall/sequential_6/dense_8/Relu", "op": "_FusedMatMul", "input": ["StatefulPartitionedCall/sequential_6/keras_layer_4/StatefulPartitionedCall/StatefulPartitionedCall/StatefulPartitionedCall/predict/feature_vector/SpatialSqueeze", "StatefulPartitionedCall/sequential_6/dense_8/MatMul/ReadVariableOp", "StatefulPartitionedCall/sequential_6/dense_8/BiasAdd/ReadVariableOp"], "device": "/device:CPU:0", "attr": {"fused_ops": {"list": {"s": ["Qmlhc0FkZA==", "UmVsdQ=="]}}, "num_args": {"i": "1"}, "transpose_a": {"b": false}, "epsilon": {"f": 0.0}, "leakyrelu_alpha": {"f": 0.2}, "T": {"type": "DT_FLOAT"}, "transpose_b": {"b": false}}}, {"name": "StatefulPartitionedCall/sequential_6/dense_9/BiasAdd", "op": "_FusedMatMul", "input": ["StatefulPartitionedCall/sequential_6/dense_8/Relu", "StatefulPartitionedCall/sequential_6/dense_9/MatMul/ReadVariableOp", "StatefulPartitionedCall/sequential_6/dense_9/BiasAdd/ReadVariableOp"], "device": "/device:CPU:0", "attr": {"epsilon": {"f": 0.0}, "transpose_b": {"b": false}, "fused_ops": {"list": {"s": ["Qmlhc0FkZA=="]}}, "transpose_a": {"b": false}, "leakyrelu_alpha": {"f": 0.2}, "T": {"type": "DT_FLOAT"}, "num_args": {"i": "1"}}}, {"name": "StatefulPartitionedCall/sequential_6/dense_9/Softmax", "op": "Softmax", "input": ["StatefulPartitionedCall/sequential_6/dense_9/BiasAdd"], "attr": {"T": {"type": "DT_FLOAT"}}}, {"name": "Identity", "op": "Identity", "input": ["StatefulPartitionedCall/sequential_6/dense_9/Softmax"], "attr": {"T": {"type": "DT_FLOAT"}}}], "library": {}, "versions": {"producer": 1575}}, "weightsManifest": [{"paths": ["group1-shard1of3.bin", "group1-shard2of3.bin", "group1-shard3of3.bin"], "weights": [{"name": "StatefulPartitionedCall/sequential_6/dense_8/MatMul/ReadVariableOp", "shape": [1280, 64], "dtype": "float32"}, {"name": "StatefulPartitionedCall/sequential_6/dense_8/BiasAdd/ReadVariableOp", "shape": [64], "dtype": "float32"}, {"name": "StatefulPartitionedCall/sequential_6/dense_9/MatMul/ReadVariableOp", "shape": [64, 36], "dtype": "float32"}, {"name": "StatefulPartitionedCall/sequential_6/dense_9/BiasAdd/ReadVariableOp", "shape": [36], "dtype": "float32"}, {"name": "StatefulPartitionedCall/sequential_6/keras_layer_4/StatefulPartitionedCall/StatefulPartitionedCall/StatefulPartitionedCall/predict/MobilenetV3/Conv/Conv2D_weights", "shape": [3, 3, 3, 16], "dtype": "float32"}, {"name": "StatefulPartitionedCall/sequential_6/keras_layer_4/StatefulPartitionedCall/StatefulPartitionedCall/StatefulPartitionedCall/predict/MobilenetV3/Conv/Conv2D_bn_offset", "shape": [16], "dtype": "float32"}, {"name": "StatefulPartitionedCall/sequential_6/keras_layer_4/StatefulPartitionedCall/StatefulPartitionedCall/StatefulPartitionedCall/predict/MobilenetV3/expanded_conv/depthwise/depthwise_weights", "shape": [3, 3, 16, 1], "dtype": "float32"}, {"name": "StatefulPartitionedCall/sequential_6/keras_layer_4/StatefulPartitionedCall/StatefulPartitionedCall/StatefulPartitionedCall/predict/MobilenetV3/expanded_conv/depthwise/depthwise_bn_offset", "shape": [16], "dtype": "float32"}, {"name": "StatefulPartitionedCall/sequential_6/keras_layer_4/StatefulPartitionedCall/StatefulPartitionedCall/StatefulPartitionedCall/predict/MobilenetV3/expanded_conv/project/Conv2D_weights", "shape": [1, 1, 16, 16], "dtype": "float32"}, {"name": "StatefulPartitionedCall/sequential_6/keras_layer_4/StatefulPartitionedCall/StatefulPartitionedCall/StatefulPartitionedCall/predict/MobilenetV3/expanded_conv/project/Conv2D_bn_offset", "shape": [16], "dtype": "float32"}, {"name": "StatefulPartitionedCall/sequential_6/keras_layer_4/StatefulPartitionedCall/StatefulPartitionedCall/StatefulPartitionedCall/predict/MobilenetV3/expanded_conv_1/expand/Conv2D_weights", "shape": [1, 1, 16, 64], "dtype": "float32"}, {"name": "StatefulPartitionedCall/sequential_6/keras_layer_4/StatefulPartitionedCall/StatefulPartitionedCall/StatefulPartitionedCall/predict/MobilenetV3/expanded_conv_1/expand/Conv2D_bn_offset", "shape": [64], "dtype": "float32"}, {"name": "StatefulPartitionedCall/sequential_6/keras_layer_4/StatefulPartitionedCall/StatefulPartitionedCall/StatefulPartitionedCall/predict/MobilenetV3/expanded_conv_1/depthwise/depthwise_weights", "shape": [3, 3, 64, 1], "dtype": "float32"}, {"name": "StatefulPartitionedCall/sequential_6/keras_layer_4/StatefulPartitionedCall/StatefulPartitionedCall/StatefulPartitionedCall/predict/MobilenetV3/expanded_conv_1/depthwise/depthwise_bn_offset", "shape": [64], "dtype": "float32"}, {"name": "StatefulPartitionedCall/sequential_6/keras_layer_4/StatefulPartitionedCall/StatefulPartitionedCall/StatefulPartitionedCall/predict/MobilenetV3/expanded_conv_1/project/Conv2D_weights", "shape": [1, 1, 64, 24], "dtype": "float32"}, {"name": "StatefulPartitionedCall/sequential_6/keras_layer_4/StatefulPartitionedCall/StatefulPartitionedCall/StatefulPartitionedCall/predict/MobilenetV3/expanded_conv_13/project/Conv2D_weights", "shape": [1, 1, 720, 120], "dtype": "float32"}, {"name": "StatefulPartitionedCall/sequential_6/keras_layer_4/StatefulPartitionedCall/StatefulPartitionedCall/StatefulPartitionedCall/predict/MobilenetV3/expanded_conv_1/project/Conv2D_bn_offset", "shape": [24], "dtype": "float32"}, {"name": "StatefulPartitionedCall/sequential_6/keras_layer_4/StatefulPartitionedCall/StatefulPartitionedCall/StatefulPartitionedCall/predict/MobilenetV3/expanded_conv_2/expand/Conv2D_weights", "shape": [1, 1, 24, 72], "dtype": "float32"}, {"name": "StatefulPartitionedCall/sequential_6/keras_layer_4/StatefulPartitionedCall/StatefulPartitionedCall/StatefulPartitionedCall/predict/MobilenetV3/expanded_conv_2/expand/Conv2D_bn_offset", "shape": [72], "dtype": "float32"}, {"name": "StatefulPartitionedCall/sequential_6/keras_layer_4/StatefulPartitionedCall/StatefulPartitionedCall/StatefulPartitionedCall/predict/MobilenetV3/expanded_conv_13/project/Conv2D_bn_offset", "shape": [120], "dtype": "float32"}, {"name": "StatefulPartitionedCall/sequential_6/keras_layer_4/StatefulPartitionedCall/StatefulPartitionedCall/StatefulPartitionedCall/predict/MobilenetV3/expanded_conv_2/depthwise/depthwise_weights", "shape": [3, 3, 72, 1], "dtype": "float32"}, {"name": "StatefulPartitionedCall/sequential_6/keras_layer_4/StatefulPartitionedCall/StatefulPartitionedCall/StatefulPartitionedCall/predict/MobilenetV3/expanded_conv_2/depthwise/depthwise_bn_offset", "shape": [72], "dtype": "float32"}, {"name": "StatefulPartitionedCall/sequential_6/keras_layer_4/StatefulPartitionedCall/StatefulPartitionedCall/StatefulPartitionedCall/predict/MobilenetV3/expanded_conv_2/project/Conv2D_weights", "shape": [1, 1, 72, 24], "dtype": "float32"}, {"name": "StatefulPartitionedCall/sequential_6/keras_layer_4/StatefulPartitionedCall/StatefulPartitionedCall/StatefulPartitionedCall/predict/MobilenetV3/expanded_conv_2/project/Conv2D_bn_offset", "shape": [24], "dtype": "float32"}, {"name": "StatefulPartitionedCall/sequential_6/keras_layer_4/StatefulPartitionedCall/StatefulPartitionedCall/StatefulPartitionedCall/predict/MobilenetV3/expanded_conv_3/expand/Conv2D_weights", "shape": [1, 1, 24, 72], "dtype": "float32"}, {"name": "StatefulPartitionedCall/sequential_6/keras_layer_4/StatefulPartitionedCall/StatefulPartitionedCall/StatefulPartitionedCall/predict/MobilenetV3/expanded_conv_3/expand/Conv2D_bn_offset", "shape": [72], "dtype": "float32"}, {"name": "StatefulPartitionedCall/sequential_6/keras_layer_4/StatefulPartitionedCall/StatefulPartitionedCall/StatefulPartitionedCall/predict/MobilenetV3/expanded_conv_14/expand/Conv2D_weights", "shape": [1, 1, 120, 720], "dtype": "float32"}, {"name": "StatefulPartitionedCall/sequential_6/keras_layer_4/StatefulPartitionedCall/StatefulPartitionedCall/StatefulPartitionedCall/predict/MobilenetV3/expanded_conv_3/depthwise/depthwise_weights", "shape": [5, 5, 72, 1], "dtype": "float32"}, {"name": "StatefulPartitionedCall/sequential_6/keras_layer_4/StatefulPartitionedCall/StatefulPartitionedCall/StatefulPartitionedCall/predict/MobilenetV3/expanded_conv_3/depthwise/depthwise_bn_offset", "shape": [72], "dtype": "float32"}, {"name": "StatefulPartitionedCall/sequential_6/keras_layer_4/StatefulPartitionedCall/StatefulPartitionedCall/StatefulPartitionedCall/predict/MobilenetV3/expanded_conv_14/expand/Conv2D_bn_offset", "shape": [720], "dtype": "float32"}, {"name": "StatefulPartitionedCall/sequential_6/keras_layer_4/StatefulPartitionedCall/StatefulPartitionedCall/StatefulPartitionedCall/predict/MobilenetV3/expanded_conv_3/project/Conv2D_weights", "shape": [1, 1, 72, 32], "dtype": "float32"}, {"name": "StatefulPartitionedCall/sequential_6/keras_layer_4/StatefulPartitionedCall/StatefulPartitionedCall/StatefulPartitionedCall/predict/MobilenetV3/expanded_conv_3/project/Conv2D_bn_offset", "shape": [32], "dtype": "float32"}, {"name": "StatefulPartitionedCall/sequential_6/keras_layer_4/StatefulPartitionedCall/StatefulPartitionedCall/StatefulPartitionedCall/predict/MobilenetV3/expanded_conv_4/expand/Conv2D_weights", "shape": [1, 1, 32, 96], "dtype": "float32"}, {"name": "StatefulPartitionedCall/sequential_6/keras_layer_4/StatefulPartitionedCall/StatefulPartitionedCall/StatefulPartitionedCall/predict/MobilenetV3/expanded_conv_4/expand/Conv2D_bn_offset", "shape": [96], "dtype": "float32"}, {"name": "StatefulPartitionedCall/sequential_6/keras_layer_4/StatefulPartitionedCall/StatefulPartitionedCall/StatefulPartitionedCall/predict/MobilenetV3/expanded_conv_4/depthwise/depthwise_weights", "shape": [5, 5, 96, 1], "dtype": "float32"}, {"name": "StatefulPartitionedCall/sequential_6/keras_layer_4/StatefulPartitionedCall/StatefulPartitionedCall/StatefulPartitionedCall/predict/MobilenetV3/expanded_conv_4/depthwise/depthwise_bn_offset", "shape": [96], "dtype": "float32"}, {"name": "StatefulPartitionedCall/sequential_6/keras_layer_4/StatefulPartitionedCall/StatefulPartitionedCall/StatefulPartitionedCall/predict/MobilenetV3/expanded_conv_14/depthwise/depthwise_weights", "shape": [5, 5, 720, 1], "dtype": "float32"}, {"name": "StatefulPartitionedCall/sequential_6/keras_layer_4/StatefulPartitionedCall/StatefulPartitionedCall/StatefulPartitionedCall/predict/MobilenetV3/expanded_conv_4/project/Conv2D_weights", "shape": [1, 1, 96, 32], "dtype": "float32"}, {"name": "StatefulPartitionedCall/sequential_6/keras_layer_4/StatefulPartitionedCall/StatefulPartitionedCall/StatefulPartitionedCall/predict/MobilenetV3/expanded_conv_14/depthwise/depthwise_bn_offset", "shape": [720], "dtype": "float32"}, {"name": "StatefulPartitionedCall/sequential_6/keras_layer_4/StatefulPartitionedCall/StatefulPartitionedCall/StatefulPartitionedCall/predict/MobilenetV3/expanded_conv_4/project/Conv2D_bn_offset", "shape": [32], "dtype": "float32"}, {"name": "StatefulPartitionedCall/sequential_6/keras_layer_4/StatefulPartitionedCall/StatefulPartitionedCall/StatefulPartitionedCall/predict/MobilenetV3/expanded_conv_5/expand/Conv2D_weights", "shape": [1, 1, 32, 96], "dtype": "float32"}, {"name": "StatefulPartitionedCall/sequential_6/keras_layer_4/StatefulPartitionedCall/StatefulPartitionedCall/StatefulPartitionedCall/predict/MobilenetV3/expanded_conv_5/expand/Conv2D_bn_offset", "shape": [96], "dtype": "float32"}, {"name": "StatefulPartitionedCall/sequential_6/keras_layer_4/StatefulPartitionedCall/StatefulPartitionedCall/StatefulPartitionedCall/predict/MobilenetV3/expanded_conv_5/depthwise/depthwise_weights", "shape": [5, 5, 96, 1], "dtype": "float32"}, {"name": "StatefulPartitionedCall/sequential_6/keras_layer_4/StatefulPartitionedCall/StatefulPartitionedCall/StatefulPartitionedCall/predict/MobilenetV3/expanded_conv_5/depthwise/depthwise_bn_offset", "shape": [96], "dtype": "float32"}, {"name": "StatefulPartitionedCall/sequential_6/keras_layer_4/StatefulPartitionedCall/StatefulPartitionedCall/StatefulPartitionedCall/predict/MobilenetV3/expanded_conv_5/project/Conv2D_weights", "shape": [1, 1, 96, 32], "dtype": "float32"}, {"name": "StatefulPartitionedCall/sequential_6/keras_layer_4/StatefulPartitionedCall/StatefulPartitionedCall/StatefulPartitionedCall/predict/MobilenetV3/expanded_conv_5/project/Conv2D_bn_offset", "shape": [32], "dtype": "float32"}, {"name": "StatefulPartitionedCall/sequential_6/keras_layer_4/StatefulPartitionedCall/StatefulPartitionedCall/StatefulPartitionedCall/predict/MobilenetV3/expanded_conv_6/expand/Conv2D_weights", "shape": [1, 1, 32, 192], "dtype": "float32"}, {"name": "StatefulPartitionedCall/sequential_6/keras_layer_4/StatefulPartitionedCall/StatefulPartitionedCall/StatefulPartitionedCall/predict/MobilenetV3/expanded_conv_6/expand/Conv2D_bn_offset", "shape": [192], "dtype": "float32"}, {"name": "StatefulPartitionedCall/sequential_6/keras_layer_4/StatefulPartitionedCall/StatefulPartitionedCall/StatefulPartitionedCall/predict/MobilenetV3/expanded_conv_6/depthwise/depthwise_weights", "shape": [3, 3, 192, 1], "dtype": "float32"}, {"name": "StatefulPartitionedCall/sequential_6/keras_layer_4/StatefulPartitionedCall/StatefulPartitionedCall/StatefulPartitionedCall/predict/MobilenetV3/expanded_conv_6/depthwise/depthwise_bn_offset", "shape": [192], "dtype": "float32"}, {"name": "StatefulPartitionedCall/sequential_6/keras_layer_4/StatefulPartitionedCall/StatefulPartitionedCall/StatefulPartitionedCall/predict/MobilenetV3/expanded_conv_6/project/Conv2D_weights", "shape": [1, 1, 192, 64], "dtype": "float32"}, {"name": "StatefulPartitionedCall/sequential_6/keras_layer_4/StatefulPartitionedCall/StatefulPartitionedCall/StatefulPartitionedCall/predict/MobilenetV3/expanded_conv_6/project/Conv2D_bn_offset", "shape": [64], "dtype": "float32"}, {"name": "StatefulPartitionedCall/sequential_6/keras_layer_4/StatefulPartitionedCall/StatefulPartitionedCall/StatefulPartitionedCall/predict/MobilenetV3/expanded_conv_7/expand/Conv2D_weights", "shape": [1, 1, 64, 160], "dtype": "float32"}, {"name": "StatefulPartitionedCall/sequential_6/keras_layer_4/StatefulPartitionedCall/StatefulPartitionedCall/StatefulPartitionedCall/predict/MobilenetV3/expanded_conv_7/expand/Conv2D_bn_offset", "shape": [160], "dtype": "float32"}, {"name": "StatefulPartitionedCall/sequential_6/keras_layer_4/StatefulPartitionedCall/StatefulPartitionedCall/StatefulPartitionedCall/predict/MobilenetV3/expanded_conv_7/depthwise/depthwise_weights", "shape": [3, 3, 160, 1], "dtype": "float32"}, {"name": "StatefulPartitionedCall/sequential_6/keras_layer_4/StatefulPartitionedCall/StatefulPartitionedCall/StatefulPartitionedCall/predict/MobilenetV3/expanded_conv_7/depthwise/depthwise_bn_offset", "shape": [160], "dtype": "float32"}, {"name": "StatefulPartitionedCall/sequential_6/keras_layer_4/StatefulPartitionedCall/StatefulPartitionedCall/StatefulPartitionedCall/predict/MobilenetV3/expanded_conv_7/project/Conv2D_weights", "shape": [1, 1, 160, 64], "dtype": "float32"}, {"name": "StatefulPartitionedCall/sequential_6/keras_layer_4/StatefulPartitionedCall/StatefulPartitionedCall/StatefulPartitionedCall/predict/MobilenetV3/expanded_conv_7/project/Conv2D_bn_offset", "shape": [64], "dtype": "float32"}, {"name": "StatefulPartitionedCall/sequential_6/keras_layer_4/StatefulPartitionedCall/StatefulPartitionedCall/StatefulPartitionedCall/predict/MobilenetV3/expanded_conv_8/expand/Conv2D_weights", "shape": [1, 1, 64, 144], "dtype": "float32"}, {"name": "StatefulPartitionedCall/sequential_6/keras_layer_4/StatefulPartitionedCall/StatefulPartitionedCall/StatefulPartitionedCall/predict/MobilenetV3/expanded_conv_8/expand/Conv2D_bn_offset", "shape": [144], "dtype": "float32"}, {"name": "StatefulPartitionedCall/sequential_6/keras_layer_4/StatefulPartitionedCall/StatefulPartitionedCall/StatefulPartitionedCall/predict/MobilenetV3/expanded_conv_8/depthwise/depthwise_weights", "shape": [3, 3, 144, 1], "dtype": "float32"}, {"name": "StatefulPartitionedCall/sequential_6/keras_layer_4/StatefulPartitionedCall/StatefulPartitionedCall/StatefulPartitionedCall/predict/MobilenetV3/expanded_conv_8/depthwise/depthwise_bn_offset", "shape": [144], "dtype": "float32"}, {"name": "StatefulPartitionedCall/sequential_6/keras_layer_4/StatefulPartitionedCall/StatefulPartitionedCall/StatefulPartitionedCall/predict/MobilenetV3/expanded_conv_8/project/Conv2D_weights", "shape": [1, 1, 144, 64], "dtype": "float32"}, {"name": "StatefulPartitionedCall/sequential_6/keras_layer_4/StatefulPartitionedCall/StatefulPartitionedCall/StatefulPartitionedCall/predict/MobilenetV3/expanded_conv_8/project/Conv2D_bn_offset", "shape": [64], "dtype": "float32"}, {"name": "StatefulPartitionedCall/sequential_6/keras_layer_4/StatefulPartitionedCall/StatefulPartitionedCall/StatefulPartitionedCall/predict/MobilenetV3/expanded_conv_9/expand/Conv2D_weights", "shape": [1, 1, 64, 144], "dtype": "float32"}, {"name": "StatefulPartitionedCall/sequential_6/keras_layer_4/StatefulPartitionedCall/StatefulPartitionedCall/StatefulPartitionedCall/predict/MobilenetV3/expanded_conv_9/expand/Conv2D_bn_offset", "shape": [144], "dtype": "float32"}, {"name": "StatefulPartitionedCall/sequential_6/keras_layer_4/StatefulPartitionedCall/StatefulPartitionedCall/StatefulPartitionedCall/predict/MobilenetV3/expanded_conv_9/depthwise/depthwise_weights", "shape": [3, 3, 144, 1], "dtype": "float32"}, {"name": "StatefulPartitionedCall/sequential_6/keras_layer_4/StatefulPartitionedCall/StatefulPartitionedCall/StatefulPartitionedCall/predict/MobilenetV3/expanded_conv_9/depthwise/depthwise_bn_offset", "shape": [144], "dtype": "float32"}, {"name": "StatefulPartitionedCall/sequential_6/keras_layer_4/StatefulPartitionedCall/StatefulPartitionedCall/StatefulPartitionedCall/predict/MobilenetV3/expanded_conv_9/project/Conv2D_weights", "shape": [1, 1, 144, 64], "dtype": "float32"}, {"name": "StatefulPartitionedCall/sequential_6/keras_layer_4/StatefulPartitionedCall/StatefulPartitionedCall/StatefulPartitionedCall/predict/MobilenetV3/expanded_conv_9/project/Conv2D_bn_offset", "shape": [64], "dtype": "float32"}, {"name": "StatefulPartitionedCall/sequential_6/keras_layer_4/StatefulPartitionedCall/StatefulPartitionedCall/StatefulPartitionedCall/predict/MobilenetV3/expanded_conv_10/expand/Conv2D_weights", "shape": [1, 1, 64, 384], "dtype": "float32"}, {"name": "StatefulPartitionedCall/sequential_6/keras_layer_4/StatefulPartitionedCall/StatefulPartitionedCall/StatefulPartitionedCall/predict/MobilenetV3/expanded_conv_10/expand/Conv2D_bn_offset", "shape": [384], "dtype": "float32"}, {"name": "StatefulPartitionedCall/sequential_6/keras_layer_4/StatefulPartitionedCall/StatefulPartitionedCall/StatefulPartitionedCall/predict/MobilenetV3/expanded_conv_10/depthwise/depthwise_weights", "shape": [3, 3, 384, 1], "dtype": "float32"}, {"name": "StatefulPartitionedCall/sequential_6/keras_layer_4/StatefulPartitionedCall/StatefulPartitionedCall/StatefulPartitionedCall/predict/MobilenetV3/expanded_conv_10/depthwise/depthwise_bn_offset", "shape": [384], "dtype": "float32"}, {"name": "StatefulPartitionedCall/sequential_6/keras_layer_4/StatefulPartitionedCall/StatefulPartitionedCall/StatefulPartitionedCall/predict/MobilenetV3/expanded_conv_14/project/Conv2D_weights", "shape": [1, 1, 720, 120], "dtype": "float32"}, {"name": "StatefulPartitionedCall/sequential_6/keras_layer_4/StatefulPartitionedCall/StatefulPartitionedCall/StatefulPartitionedCall/predict/MobilenetV3/expanded_conv_14/project/Conv2D_bn_offset", "shape": [120], "dtype": "float32"}, {"name": "StatefulPartitionedCall/sequential_6/keras_layer_4/StatefulPartitionedCall/StatefulPartitionedCall/StatefulPartitionedCall/predict/MobilenetV3/expanded_conv_10/project/Conv2D_weights", "shape": [1, 1, 384, 88], "dtype": "float32"}, {"name": "StatefulPartitionedCall/sequential_6/keras_layer_4/StatefulPartitionedCall/StatefulPartitionedCall/StatefulPartitionedCall/predict/MobilenetV3/expanded_conv_10/project/Conv2D_bn_offset", "shape": [88], "dtype": "float32"}, {"name": "StatefulPartitionedCall/sequential_6/keras_layer_4/StatefulPartitionedCall/StatefulPartitionedCall/StatefulPartitionedCall/predict/MobilenetV3/expanded_conv_11/expand/Conv2D_weights", "shape": [1, 1, 88, 528], "dtype": "float32"}, {"name": "StatefulPartitionedCall/sequential_6/keras_layer_4/StatefulPartitionedCall/StatefulPartitionedCall/StatefulPartitionedCall/predict/MobilenetV3/expanded_conv_11/expand/Conv2D_bn_offset", "shape": [528], "dtype": "float32"}, {"name": "StatefulPartitionedCall/sequential_6/keras_layer_4/StatefulPartitionedCall/StatefulPartitionedCall/StatefulPartitionedCall/predict/MobilenetV3/expanded_conv_11/depthwise/depthwise_weights", "shape": [3, 3, 528, 1], "dtype": "float32"}, {"name": "StatefulPartitionedCall/sequential_6/keras_layer_4/StatefulPartitionedCall/StatefulPartitionedCall/StatefulPartitionedCall/predict/MobilenetV3/expanded_conv_11/depthwise/depthwise_bn_offset", "shape": [528], "dtype": "float32"}, {"name": "StatefulPartitionedCall/sequential_6/keras_layer_4/StatefulPartitionedCall/StatefulPartitionedCall/StatefulPartitionedCall/predict/MobilenetV3/Conv_1/Conv2D_weights", "shape": [1, 1, 120, 720], "dtype": "float32"}, {"name": "StatefulPartitionedCall/sequential_6/keras_layer_4/StatefulPartitionedCall/StatefulPartitionedCall/StatefulPartitionedCall/predict/MobilenetV3/Conv_1/Conv2D_bn_offset", "shape": [720], "dtype": "float32"}, {"name": "StatefulPartitionedCall/sequential_6/keras_layer_4/StatefulPartitionedCall/StatefulPartitionedCall/StatefulPartitionedCall/predict/MobilenetV3/expanded_conv_11/project/Conv2D_weights", "shape": [1, 1, 528, 88], "dtype": "float32"}, {"name": "StatefulPartitionedCall/sequential_6/keras_layer_4/StatefulPartitionedCall/StatefulPartitionedCall/StatefulPartitionedCall/predict/MobilenetV3/expanded_conv_11/project/Conv2D_bn_offset", "shape": [88], "dtype": "float32"}, {"name": "StatefulPartitionedCall/sequential_6/keras_layer_4/StatefulPartitionedCall/StatefulPartitionedCall/StatefulPartitionedCall/predict/MobilenetV3/expanded_conv_12/expand/Conv2D_weights", "shape": [1, 1, 88, 528], "dtype": "float32"}, {"name": "StatefulPartitionedCall/sequential_6/keras_layer_4/StatefulPartitionedCall/StatefulPartitionedCall/StatefulPartitionedCall/predict/MobilenetV3/expanded_conv_12/expand/Conv2D_bn_offset", "shape": [528], "dtype": "float32"}, {"name": "StatefulPartitionedCall/sequential_6/keras_layer_4/StatefulPartitionedCall/StatefulPartitionedCall/StatefulPartitionedCall/predict/MobilenetV3/expanded_conv_12/depthwise/depthwise_weights", "shape": [5, 5, 528, 1], "dtype": "float32"}, {"name": "StatefulPartitionedCall/sequential_6/keras_layer_4/StatefulPartitionedCall/StatefulPartitionedCall/StatefulPartitionedCall/predict/MobilenetV3/expanded_conv_12/depthwise/depthwise_bn_offset", "shape": [528], "dtype": "float32"}, {"name": "StatefulPartitionedCall/sequential_6/keras_layer_4/StatefulPartitionedCall/StatefulPartitionedCall/StatefulPartitionedCall/predict/MobilenetV3/expanded_conv_12/project/Conv2D_weights", "shape": [1, 1, 528, 120], "dtype": "float32"}, {"name": "StatefulPartitionedCall/sequential_6/keras_layer_4/StatefulPartitionedCall/StatefulPartitionedCall/StatefulPartitionedCall/predict/MobilenetV3/expanded_conv_12/project/Conv2D_bn_offset", "shape": [120], "dtype": "float32"}, {"name": "StatefulPartitionedCall/sequential_6/keras_layer_4/StatefulPartitionedCall/StatefulPartitionedCall/StatefulPartitionedCall/predict/MobilenetV3/expanded_conv_13/expand/Conv2D_weights", "shape": [1, 1, 120, 720], "dtype": "float32"}, {"name": "StatefulPartitionedCall/sequential_6/keras_layer_4/StatefulPartitionedCall/StatefulPartitionedCall/StatefulPartitionedCall/predict/MobilenetV3/expanded_conv_13/expand/Conv2D_bn_offset", "shape": [720], "dtype": "float32"}, {"name": "StatefulPartitionedCall/sequential_6/keras_layer_4/StatefulPartitionedCall/StatefulPartitionedCall/StatefulPartitionedCall/predict/MobilenetV3/expanded_conv_13/depthwise/depthwise_weights", "shape": [5, 5, 720, 1], "dtype": "float32"}, {"name": "StatefulPartitionedCall/sequential_6/keras_layer_4/StatefulPartitionedCall/StatefulPartitionedCall/StatefulPartitionedCall/predict/MobilenetV3/expanded_conv_13/depthwise/depthwise_bn_offset", "shape": [720], "dtype": "float32"}, {"name": "StatefulPartitionedCall/sequential_6/keras_layer_4/StatefulPartitionedCall/StatefulPartitionedCall/StatefulPartitionedCall/predict/MobilenetV3/Conv_2/hard_swish/mul_1/y", "shape": [], "dtype": "float32"}, {"name": "StatefulPartitionedCall/sequential_6/keras_layer_4/StatefulPartitionedCall/StatefulPartitionedCall/StatefulPartitionedCall/predict/MobilenetV3/Conv_1/hard_swish/mul_1/y", "shape": [], "dtype": "float32"}, {"name": "StatefulPartitionedCall/sequential_6/keras_layer_4/StatefulPartitionedCall/StatefulPartitionedCall/StatefulPartitionedCall/predict/MobilenetV3/expanded_conv_14/squeeze_excite/Conv_1/mul/y", "shape": [], "dtype": "float32"}, {"name": "StatefulPartitionedCall/sequential_6/keras_layer_4/StatefulPartitionedCall/StatefulPartitionedCall/StatefulPartitionedCall/predict/MobilenetV3/expanded_conv_14/squeeze_excite/Mean/reduction_indices", "shape": [2], "dtype": "int32"}, {"name": "Func/StatefulPartitionedCall/sequential_6/keras_layer_4/StatefulPartitionedCall/StatefulPartitionedCall/StatefulPartitionedCall/input/_1059", "shape": [1, 1, 720, 184], "dtype": "float32"}, {"name": "Func/StatefulPartitionedCall/sequential_6/keras_layer_4/StatefulPartitionedCall/StatefulPartitionedCall/StatefulPartitionedCall/input/_1060", "shape": [184], "dtype": "float32"}, {"name": "Func/StatefulPartitionedCall/sequential_6/keras_layer_4/StatefulPartitionedCall/StatefulPartitionedCall/StatefulPartitionedCall/input/_1061", "shape": [1, 1, 184, 720], "dtype": "float32"}, {"name": "Func/StatefulPartitionedCall/sequential_6/keras_layer_4/StatefulPartitionedCall/StatefulPartitionedCall/StatefulPartitionedCall/input/_1062", "shape": [720], "dtype": "float32"}, {"name": "StatefulPartitionedCall/sequential_6/keras_layer_4/StatefulPartitionedCall/StatefulPartitionedCall/StatefulPartitionedCall/predict/MobilenetV3/expanded_conv_14/squeeze_excite/Conv_1/add/y", "shape": [], "dtype": "float32"}, {"name": "StatefulPartitionedCall/sequential_6/keras_layer_4/StatefulPartitionedCall/StatefulPartitionedCall/StatefulPartitionedCall/predict/MobilenetV3/expanded_conv_14/depthwise/hard_swish/mul_1/y", "shape": [], "dtype": "float32"}, {"name": "StatefulPartitionedCall/sequential_6/keras_layer_4/StatefulPartitionedCall/StatefulPartitionedCall/StatefulPartitionedCall/predict/MobilenetV3/expanded_conv_14/expand/hard_swish/mul_1/y", "shape": [], "dtype": "float32"}, {"name": "StatefulPartitionedCall/sequential_6/keras_layer_4/StatefulPartitionedCall/StatefulPartitionedCall/StatefulPartitionedCall/predict/MobilenetV3/expanded_conv_14/expand/hard_swish/add/y", "shape": [], "dtype": "float32"}, {"name": "StatefulPartitionedCall/sequential_6/keras_layer_4/StatefulPartitionedCall/StatefulPartitionedCall/StatefulPartitionedCall/predict/MobilenetV3/expanded_conv_14/depthwise/hard_swish/add/y", "shape": [], "dtype": "float32"}, {"name": "StatefulPartitionedCall/sequential_6/keras_layer_4/StatefulPartitionedCall/StatefulPartitionedCall/StatefulPartitionedCall/predict/MobilenetV3/expanded_conv_13/squeeze_excite/Conv_1/mul/y", "shape": [], "dtype": "float32"}, {"name": "StatefulPartitionedCall/sequential_6/keras_layer_4/StatefulPartitionedCall/StatefulPartitionedCall/StatefulPartitionedCall/predict/MobilenetV3/expanded_conv_13/squeeze_excite/Mean/reduction_indices", "shape": [2], "dtype": "int32"}, {"name": "Func/StatefulPartitionedCall/sequential_6/keras_layer_4/StatefulPartitionedCall/StatefulPartitionedCall/StatefulPartitionedCall/input/_1040", "shape": [1, 1, 720, 184], "dtype": "float32"}, {"name": "Func/StatefulPartitionedCall/sequential_6/keras_layer_4/StatefulPartitionedCall/StatefulPartitionedCall/StatefulPartitionedCall/input/_1041", "shape": [184], "dtype": "float32"}, {"name": "Func/StatefulPartitionedCall/sequential_6/keras_layer_4/StatefulPartitionedCall/StatefulPartitionedCall/StatefulPartitionedCall/input/_1042", "shape": [1, 1, 184, 720], "dtype": "float32"}, {"name": "Func/StatefulPartitionedCall/sequential_6/keras_layer_4/StatefulPartitionedCall/StatefulPartitionedCall/StatefulPartitionedCall/input/_1043", "shape": [720], "dtype": "float32"}, {"name": "StatefulPartitionedCall/sequential_6/keras_layer_4/StatefulPartitionedCall/StatefulPartitionedCall/StatefulPartitionedCall/predict/MobilenetV3/expanded_conv_13/squeeze_excite/Conv_1/add/y", "shape": [], "dtype": "float32"}, {"name": "StatefulPartitionedCall/sequential_6/keras_layer_4/StatefulPartitionedCall/StatefulPartitionedCall/StatefulPartitionedCall/predict/MobilenetV3/expanded_conv_13/depthwise/hard_swish/mul_1/y", "shape": [], "dtype": "float32"}, {"name": "StatefulPartitionedCall/sequential_6/keras_layer_4/StatefulPartitionedCall/StatefulPartitionedCall/StatefulPartitionedCall/predict/MobilenetV3/expanded_conv_13/expand/hard_swish/mul_1/y", "shape": [], "dtype": "float32"}, {"name": "StatefulPartitionedCall/sequential_6/keras_layer_4/StatefulPartitionedCall/StatefulPartitionedCall/StatefulPartitionedCall/predict/MobilenetV3/expanded_conv_13/expand/hard_swish/add/y", "shape": [], "dtype": "float32"}, {"name": "StatefulPartitionedCall/sequential_6/keras_layer_4/StatefulPartitionedCall/StatefulPartitionedCall/StatefulPartitionedCall/predict/MobilenetV3/expanded_conv_13/depthwise/hard_swish/add/y", "shape": [], "dtype": "float32"}, {"name": "StatefulPartitionedCall/sequential_6/keras_layer_4/StatefulPartitionedCall/StatefulPartitionedCall/StatefulPartitionedCall/predict/MobilenetV3/expanded_conv_12/squeeze_excite/Conv_1/mul/y", "shape": [], "dtype": "float32"}, {"name": "StatefulPartitionedCall/sequential_6/keras_layer_4/StatefulPartitionedCall/StatefulPartitionedCall/StatefulPartitionedCall/predict/MobilenetV3/expanded_conv_12/squeeze_excite/Mean/reduction_indices", "shape": [2], "dtype": "int32"}, {"name": "Func/StatefulPartitionedCall/sequential_6/keras_layer_4/StatefulPartitionedCall/StatefulPartitionedCall/StatefulPartitionedCall/input/_1021", "shape": [1, 1, 528, 136], "dtype": "float32"}, {"name": "Func/StatefulPartitionedCall/sequential_6/keras_layer_4/StatefulPartitionedCall/StatefulPartitionedCall/StatefulPartitionedCall/input/_1022", "shape": [136], "dtype": "float32"}, {"name": "Func/StatefulPartitionedCall/sequential_6/keras_layer_4/StatefulPartitionedCall/StatefulPartitionedCall/StatefulPartitionedCall/input/_1023", "shape": [1, 1, 136, 528], "dtype": "float32"}, {"name": "Func/StatefulPartitionedCall/sequential_6/keras_layer_4/StatefulPartitionedCall/StatefulPartitionedCall/StatefulPartitionedCall/input/_1024", "shape": [528], "dtype": "float32"}, {"name": "StatefulPartitionedCall/sequential_6/keras_layer_4/StatefulPartitionedCall/StatefulPartitionedCall/StatefulPartitionedCall/predict/MobilenetV3/expanded_conv_12/squeeze_excite/Conv_1/add/y", "shape": [], "dtype": "float32"}, {"name": "StatefulPartitionedCall/sequential_6/keras_layer_4/StatefulPartitionedCall/StatefulPartitionedCall/StatefulPartitionedCall/predict/MobilenetV3/expanded_conv_12/depthwise/hard_swish/mul_1/y", "shape": [], "dtype": "float32"}, {"name": "StatefulPartitionedCall/sequential_6/keras_layer_4/StatefulPartitionedCall/StatefulPartitionedCall/StatefulPartitionedCall/predict/MobilenetV3/expanded_conv_12/expand/hard_swish/mul_1/y", "shape": [], "dtype": "float32"}, {"name": "StatefulPartitionedCall/sequential_6/keras_layer_4/StatefulPartitionedCall/StatefulPartitionedCall/StatefulPartitionedCall/predict/MobilenetV3/expanded_conv_11/squeeze_excite/Conv_1/mul/y", "shape": [], "dtype": "float32"}, {"name": "StatefulPartitionedCall/sequential_6/keras_layer_4/StatefulPartitionedCall/StatefulPartitionedCall/StatefulPartitionedCall/predict/MobilenetV3/expanded_conv_11/squeeze_excite/Mean/reduction_indices", "shape": [2], "dtype": "int32"}, {"name": "Func/StatefulPartitionedCall/sequential_6/keras_layer_4/StatefulPartitionedCall/StatefulPartitionedCall/StatefulPartitionedCall/input/_1002", "shape": [1, 1, 528, 136], "dtype": "float32"}, {"name": "Func/StatefulPartitionedCall/sequential_6/keras_layer_4/StatefulPartitionedCall/StatefulPartitionedCall/StatefulPartitionedCall/input/_1003", "shape": [136], "dtype": "float32"}, {"name": "Func/StatefulPartitionedCall/sequential_6/keras_layer_4/StatefulPartitionedCall/StatefulPartitionedCall/StatefulPartitionedCall/input/_1004", "shape": [1, 1, 136, 528], "dtype": "float32"}, {"name": "Func/StatefulPartitionedCall/sequential_6/keras_layer_4/StatefulPartitionedCall/StatefulPartitionedCall/StatefulPartitionedCall/input/_1005", "shape": [528], "dtype": "float32"}, {"name": "StatefulPartitionedCall/sequential_6/keras_layer_4/StatefulPartitionedCall/StatefulPartitionedCall/StatefulPartitionedCall/predict/MobilenetV3/expanded_conv_11/squeeze_excite/Conv_1/add/y", "shape": [], "dtype": "float32"}, {"name": "StatefulPartitionedCall/sequential_6/keras_layer_4/StatefulPartitionedCall/StatefulPartitionedCall/StatefulPartitionedCall/predict/MobilenetV3/expanded_conv_11/depthwise/hard_swish/mul_1/y", "shape": [], "dtype": "float32"}, {"name": "StatefulPartitionedCall/sequential_6/keras_layer_4/StatefulPartitionedCall/StatefulPartitionedCall/StatefulPartitionedCall/predict/MobilenetV3/expanded_conv_11/expand/hard_swish/mul_1/y", "shape": [], "dtype": "float32"}, {"name": "StatefulPartitionedCall/sequential_6/keras_layer_4/StatefulPartitionedCall/StatefulPartitionedCall/StatefulPartitionedCall/predict/MobilenetV3/expanded_conv_11/expand/hard_swish/add/y", "shape": [], "dtype": "float32"}, {"name": "StatefulPartitionedCall/sequential_6/keras_layer_4/StatefulPartitionedCall/StatefulPartitionedCall/StatefulPartitionedCall/predict/MobilenetV3/expanded_conv_11/depthwise/hard_swish/add/y", "shape": [], "dtype": "float32"}, {"name": "StatefulPartitionedCall/sequential_6/keras_layer_4/StatefulPartitionedCall/StatefulPartitionedCall/StatefulPartitionedCall/predict/MobilenetV3/expanded_conv_10/squeeze_excite/Conv_1/mul/y", "shape": [], "dtype": "float32"}, {"name": "StatefulPartitionedCall/sequential_6/keras_layer_4/StatefulPartitionedCall/StatefulPartitionedCall/StatefulPartitionedCall/predict/MobilenetV3/expanded_conv_10/squeeze_excite/Mean/reduction_indices", "shape": [2], "dtype": "int32"}, {"name": "Func/StatefulPartitionedCall/sequential_6/keras_layer_4/StatefulPartitionedCall/StatefulPartitionedCall/StatefulPartitionedCall/input/_983", "shape": [1, 1, 384, 96], "dtype": "float32"}, {"name": "Func/StatefulPartitionedCall/sequential_6/keras_layer_4/StatefulPartitionedCall/StatefulPartitionedCall/StatefulPartitionedCall/input/_984", "shape": [96], "dtype": "float32"}, {"name": "Func/StatefulPartitionedCall/sequential_6/keras_layer_4/StatefulPartitionedCall/StatefulPartitionedCall/StatefulPartitionedCall/input/_985", "shape": [1, 1, 96, 384], "dtype": "float32"}, {"name": "Func/StatefulPartitionedCall/sequential_6/keras_layer_4/StatefulPartitionedCall/StatefulPartitionedCall/StatefulPartitionedCall/input/_986", "shape": [384], "dtype": "float32"}, {"name": "StatefulPartitionedCall/sequential_6/keras_layer_4/StatefulPartitionedCall/StatefulPartitionedCall/StatefulPartitionedCall/predict/MobilenetV3/expanded_conv_10/squeeze_excite/Conv_1/add/y", "shape": [], "dtype": "float32"}, {"name": "StatefulPartitionedCall/sequential_6/keras_layer_4/StatefulPartitionedCall/StatefulPartitionedCall/StatefulPartitionedCall/predict/MobilenetV3/expanded_conv_10/depthwise/hard_swish/mul_1/y", "shape": [], "dtype": "float32"}, {"name": "StatefulPartitionedCall/sequential_6/keras_layer_4/StatefulPartitionedCall/StatefulPartitionedCall/StatefulPartitionedCall/predict/MobilenetV3/expanded_conv_10/expand/hard_swish/mul_1/y", "shape": [], "dtype": "float32"}, {"name": "StatefulPartitionedCall/sequential_6/keras_layer_4/StatefulPartitionedCall/StatefulPartitionedCall/StatefulPartitionedCall/predict/MobilenetV3/expanded_conv_9/depthwise/hard_swish/mul_1/y", "shape": [], "dtype": "float32"}, {"name": "StatefulPartitionedCall/sequential_6/keras_layer_4/StatefulPartitionedCall/StatefulPartitionedCall/StatefulPartitionedCall/predict/MobilenetV3/expanded_conv_9/expand/hard_swish/mul_1/y", "shape": [], "dtype": "float32"}, {"name": "StatefulPartitionedCall/sequential_6/keras_layer_4/StatefulPartitionedCall/StatefulPartitionedCall/StatefulPartitionedCall/predict/MobilenetV3/expanded_conv_9/expand/hard_swish/add/y", "shape": [], "dtype": "float32"}, {"name": "StatefulPartitionedCall/sequential_6/keras_layer_4/StatefulPartitionedCall/StatefulPartitionedCall/StatefulPartitionedCall/predict/MobilenetV3/expanded_conv_9/depthwise/hard_swish/add/y", "shape": [], "dtype": "float32"}, {"name": "StatefulPartitionedCall/sequential_6/keras_layer_4/StatefulPartitionedCall/StatefulPartitionedCall/StatefulPartitionedCall/predict/MobilenetV3/expanded_conv_8/depthwise/hard_swish/mul_1/y", "shape": [], "dtype": "float32"}, {"name": "StatefulPartitionedCall/sequential_6/keras_layer_4/StatefulPartitionedCall/StatefulPartitionedCall/StatefulPartitionedCall/predict/MobilenetV3/expanded_conv_8/expand/hard_swish/mul_1/y", "shape": [], "dtype": "float32"}, {"name": "StatefulPartitionedCall/sequential_6/keras_layer_4/StatefulPartitionedCall/StatefulPartitionedCall/StatefulPartitionedCall/predict/MobilenetV3/expanded_conv_8/expand/hard_swish/add/y", "shape": [], "dtype": "float32"}, {"name": "StatefulPartitionedCall/sequential_6/keras_layer_4/StatefulPartitionedCall/StatefulPartitionedCall/StatefulPartitionedCall/predict/MobilenetV3/expanded_conv_8/depthwise/hard_swish/add/y", "shape": [], "dtype": "float32"}, {"name": "StatefulPartitionedCall/sequential_6/keras_layer_4/StatefulPartitionedCall/StatefulPartitionedCall/StatefulPartitionedCall/predict/MobilenetV3/expanded_conv_7/depthwise/hard_swish/mul_1/y", "shape": [], "dtype": "float32"}, {"name": "StatefulPartitionedCall/sequential_6/keras_layer_4/StatefulPartitionedCall/StatefulPartitionedCall/StatefulPartitionedCall/predict/MobilenetV3/expanded_conv_7/expand/hard_swish/mul_1/y", "shape": [], "dtype": "float32"}, {"name": "StatefulPartitionedCall/sequential_6/keras_layer_4/StatefulPartitionedCall/StatefulPartitionedCall/StatefulPartitionedCall/predict/MobilenetV3/expanded_conv_7/expand/hard_swish/add/y", "shape": [], "dtype": "float32"}, {"name": "StatefulPartitionedCall/sequential_6/keras_layer_4/StatefulPartitionedCall/StatefulPartitionedCall/StatefulPartitionedCall/predict/MobilenetV3/expanded_conv_7/depthwise/hard_swish/add/y", "shape": [], "dtype": "float32"}, {"name": "StatefulPartitionedCall/sequential_6/keras_layer_4/StatefulPartitionedCall/StatefulPartitionedCall/StatefulPartitionedCall/predict/MobilenetV3/expanded_conv_6/depthwise/hard_swish/mul_1/y", "shape": [], "dtype": "float32"}, {"name": "StatefulPartitionedCall/sequential_6/keras_layer_4/StatefulPartitionedCall/StatefulPartitionedCall/StatefulPartitionedCall/predict/MobilenetV3/expanded_conv_6/expand/hard_swish/mul_1/y", "shape": [], "dtype": "float32"}, {"name": "StatefulPartitionedCall/sequential_6/keras_layer_4/StatefulPartitionedCall/StatefulPartitionedCall/StatefulPartitionedCall/predict/MobilenetV3/expanded_conv_5/squeeze_excite/Conv_1/mul/y", "shape": [], "dtype": "float32"}, {"name": "StatefulPartitionedCall/sequential_6/keras_layer_4/StatefulPartitionedCall/StatefulPartitionedCall/StatefulPartitionedCall/predict/MobilenetV3/expanded_conv_5/squeeze_excite/Mean/reduction_indices", "shape": [2], "dtype": "int32"}, {"name": "Func/StatefulPartitionedCall/sequential_6/keras_layer_4/StatefulPartitionedCall/StatefulPartitionedCall/StatefulPartitionedCall/input/_904", "shape": [1, 1, 96, 24], "dtype": "float32"}, {"name": "Func/StatefulPartitionedCall/sequential_6/keras_layer_4/StatefulPartitionedCall/StatefulPartitionedCall/StatefulPartitionedCall/input/_905", "shape": [24], "dtype": "float32"}, {"name": "Func/StatefulPartitionedCall/sequential_6/keras_layer_4/StatefulPartitionedCall/StatefulPartitionedCall/StatefulPartitionedCall/input/_906", "shape": [1, 1, 24, 96], "dtype": "float32"}, {"name": "Func/StatefulPartitionedCall/sequential_6/keras_layer_4/StatefulPartitionedCall/StatefulPartitionedCall/StatefulPartitionedCall/input/_907", "shape": [96], "dtype": "float32"}, {"name": "StatefulPartitionedCall/sequential_6/keras_layer_4/StatefulPartitionedCall/StatefulPartitionedCall/StatefulPartitionedCall/predict/MobilenetV3/expanded_conv_5/squeeze_excite/Conv_1/add/y", "shape": [], "dtype": "float32"}, {"name": "StatefulPartitionedCall/sequential_6/keras_layer_4/StatefulPartitionedCall/StatefulPartitionedCall/StatefulPartitionedCall/predict/MobilenetV3/expanded_conv_4/squeeze_excite/Conv_1/mul/y", "shape": [], "dtype": "float32"}, {"name": "StatefulPartitionedCall/sequential_6/keras_layer_4/StatefulPartitionedCall/StatefulPartitionedCall/StatefulPartitionedCall/predict/MobilenetV3/expanded_conv_4/squeeze_excite/Mean/reduction_indices", "shape": [2], "dtype": "int32"}, {"name": "Func/StatefulPartitionedCall/sequential_6/keras_layer_4/StatefulPartitionedCall/StatefulPartitionedCall/StatefulPartitionedCall/input/_885", "shape": [1, 1, 96, 24], "dtype": "float32"}, {"name": "Func/StatefulPartitionedCall/sequential_6/keras_layer_4/StatefulPartitionedCall/StatefulPartitionedCall/StatefulPartitionedCall/input/_886", "shape": [24], "dtype": "float32"}, {"name": "Func/StatefulPartitionedCall/sequential_6/keras_layer_4/StatefulPartitionedCall/StatefulPartitionedCall/StatefulPartitionedCall/input/_887", "shape": [1, 1, 24, 96], "dtype": "float32"}, {"name": "Func/StatefulPartitionedCall/sequential_6/keras_layer_4/StatefulPartitionedCall/StatefulPartitionedCall/StatefulPartitionedCall/input/_888", "shape": [96], "dtype": "float32"}, {"name": "StatefulPartitionedCall/sequential_6/keras_layer_4/StatefulPartitionedCall/StatefulPartitionedCall/StatefulPartitionedCall/predict/MobilenetV3/expanded_conv_4/squeeze_excite/Conv_1/add/y", "shape": [], "dtype": "float32"}, {"name": "StatefulPartitionedCall/sequential_6/keras_layer_4/StatefulPartitionedCall/StatefulPartitionedCall/StatefulPartitionedCall/predict/MobilenetV3/expanded_conv_3/squeeze_excite/Conv_1/mul/y", "shape": [], "dtype": "float32"}, {"name": "StatefulPartitionedCall/sequential_6/keras_layer_4/StatefulPartitionedCall/StatefulPartitionedCall/StatefulPartitionedCall/predict/MobilenetV3/expanded_conv_3/squeeze_excite/Mean/reduction_indices", "shape": [2], "dtype": "int32"}, {"name": "Func/StatefulPartitionedCall/sequential_6/keras_layer_4/StatefulPartitionedCall/StatefulPartitionedCall/StatefulPartitionedCall/input/_866", "shape": [1, 1, 72, 24], "dtype": "float32"}, {"name": "Func/StatefulPartitionedCall/sequential_6/keras_layer_4/StatefulPartitionedCall/StatefulPartitionedCall/StatefulPartitionedCall/input/_867", "shape": [24], "dtype": "float32"}, {"name": "Func/StatefulPartitionedCall/sequential_6/keras_layer_4/StatefulPartitionedCall/StatefulPartitionedCall/StatefulPartitionedCall/input/_868", "shape": [1, 1, 24, 72], "dtype": "float32"}, {"name": "Func/StatefulPartitionedCall/sequential_6/keras_layer_4/StatefulPartitionedCall/StatefulPartitionedCall/StatefulPartitionedCall/input/_869", "shape": [72], "dtype": "float32"}, {"name": "StatefulPartitionedCall/sequential_6/keras_layer_4/StatefulPartitionedCall/StatefulPartitionedCall/StatefulPartitionedCall/predict/MobilenetV3/expanded_conv_3/squeeze_excite/Conv_1/add/y", "shape": [], "dtype": "float32"}, {"name": "StatefulPartitionedCall/sequential_6/keras_layer_4/StatefulPartitionedCall/StatefulPartitionedCall/StatefulPartitionedCall/predict/MobilenetV3/Conv/hard_swish/mul_1/y", "shape": [], "dtype": "float32"}, {"name": "StatefulPartitionedCall/sequential_6/keras_layer_4/StatefulPartitionedCall/StatefulPartitionedCall/StatefulPartitionedCall/predict/hub_input/Mul/y", "shape": [], "dtype": "float32"}, {"name": "StatefulPartitionedCall/sequential_6/keras_layer_4/StatefulPartitionedCall/StatefulPartitionedCall/StatefulPartitionedCall/predict/hub_input/Sub/y", "shape": [], "dtype": "float32"}, {"name": "StatefulPartitionedCall/sequential_6/keras_layer_4/StatefulPartitionedCall/StatefulPartitionedCall/StatefulPartitionedCall/predict/MobilenetV3/Conv/hard_swish/add/y", "shape": [], "dtype": "float32"}, {"name": "StatefulPartitionedCall/sequential_6/keras_layer_4/StatefulPartitionedCall/StatefulPartitionedCall/StatefulPartitionedCall/predict/MobilenetV3/expanded_conv_6/expand/hard_swish/add/y", "shape": [], "dtype": "float32"}, {"name": "StatefulPartitionedCall/sequential_6/keras_layer_4/StatefulPartitionedCall/StatefulPartitionedCall/StatefulPartitionedCall/predict/MobilenetV3/expanded_conv_6/depthwise/hard_swish/add/y", "shape": [], "dtype": "float32"}, {"name": "StatefulPartitionedCall/sequential_6/keras_layer_4/StatefulPartitionedCall/StatefulPartitionedCall/StatefulPartitionedCall/predict/MobilenetV3/expanded_conv_10/expand/hard_swish/add/y", "shape": [], "dtype": "float32"}, {"name": "StatefulPartitionedCall/sequential_6/keras_layer_4/StatefulPartitionedCall/StatefulPartitionedCall/StatefulPartitionedCall/predict/MobilenetV3/expanded_conv_10/depthwise/hard_swish/add/y", "shape": [], "dtype": "float32"}, {"name": "StatefulPartitionedCall/sequential_6/keras_layer_4/StatefulPartitionedCall/StatefulPartitionedCall/StatefulPartitionedCall/predict/MobilenetV3/expanded_conv_12/expand/hard_swish/add/y", "shape": [], "dtype": "float32"}, {"name": "StatefulPartitionedCall/sequential_6/keras_layer_4/StatefulPartitionedCall/StatefulPartitionedCall/StatefulPartitionedCall/predict/MobilenetV3/expanded_conv_12/depthwise/hard_swish/add/y", "shape": [], "dtype": "float32"}, {"name": "StatefulPartitionedCall/sequential_6/keras_layer_4/StatefulPartitionedCall/StatefulPartitionedCall/StatefulPartitionedCall/predict/MobilenetV3/Conv_1/hard_swish/add/y", "shape": [], "dtype": "float32"}, {"name": "Func/StatefulPartitionedCall/sequential_6/keras_layer_4/StatefulPartitionedCall/StatefulPartitionedCall/StatefulPartitionedCall/input/_1073", "shape": [1, 1, 720, 1280], "dtype": "float32"}, {"name": "Func/StatefulPartitionedCall/sequential_6/keras_layer_4/StatefulPartitionedCall/StatefulPartitionedCall/StatefulPartitionedCall/input/_1074", "shape": [1280], "dtype": "float32"}, {"name": "StatefulPartitionedCall/sequential_6/keras_layer_4/StatefulPartitionedCall/StatefulPartitionedCall/StatefulPartitionedCall/predict/MobilenetV3/Conv_2/hard_swish/add/y", "shape": [], "dtype": "float32"}]}]}